Code/network_saves/Redetreinada_com harmonicos.pt (torch, 39063 bytes, 5 tensors)

linear_relu_stack.0.weight f4 [67, 67]
-0.10944256 -0.11389148 -0.041532543 -0.09181445 0.08481886 -0.11495905 -0.018929293 -0.09689347
0.039869506 0.11451227 0.08760815 0.021207634 -0.061632972 -0.050879594 0.053859685 -0.12155867
0.086789235 -0.06767534 0.08248396 0.07692819 0.058358293 -0.044560436 0.099876806 -0.06911388
-0.03045833 0.09669288 0.10085988 -0.10079456 -0.06709404 0.077513374 0.04564257 0.069659084
0.11199595 0.0043785013 0.10307355 -0.09795934 -0.11478042 -0.09859411 0.04133795 -0.07859089
-0.02247242 0.08182369 -0.024531517 -0.08836135 -0.021454584 0.07238638 0.073725365 -0.10853728
0.05441897 0.078582786 -0.0063544456 -0.12613115 -0.07709409 0.047848642 -0.05429671 0.099924244
0.060813926 0.064224504 0.1030749 -0.019958673 -0.06738641 -0.10692204 0.060657028 0.08926742
0.07485732 0.06585759 -0.02458885 -0.12285512 0.020139152 0.1664228 -0.05545298 0.0004412541
-0.08194492 0.019464033 0.05517294 -0.13127175 0.027487367 0.14806145 0.01822354 -0.18731278
-0.028376635 -0.005463997 0.013667914 -0.12215354 0.12608783 0.08566087 0.003216339 0.1298404
0.13862453 0.058245692 -0.0017005834 0.0050587673 0.07614777 0.06684446 0.036787774 -0.07268472
0.12429485 -0.007286548 0.042315885 -0.08872274 -0.056521192 -0.16716833 0.100200735 0.120520145
0.021475513 -0.04321327 0.038747717 0.08626957 -0.014896029 -0.0426597 -0.10054579 -0.025944442
-0.07454983 0.09650371 -0.13069688 0.05055363 0.17504135 -0.118513756 0.101750374 -0.13758743
0.09941482 -0.05551817 -0.08152209 0.08350214 -0.028521506 -0.08340308 -0.054061495 -0.023493754
0.096329115 -0.06618615 0.09517082 0.32185632 0.21465045 -0.06992204 -0.119752 -0.06594095
0.12063354 0.13286623 0.025918601 0.14054373 0.005363277 -0.075130776 -0.14034927 0.07261295
0.14700961 0.015649356 -0.11385177 0.010693906 0.00883891 0.22519724 -0.19171275 0.112548724
0.10202745 0.033101678 0.10876664 0.04239779 0.008409297 -0.07397819 0.12172487 0.069248505
-0.16448079 -0.086933546 -0.07411648 0.13779466 0.08248355 0.01915196 -0.1148094 0.07794317
-0.011881665 0.007545621 0.21709968 0.03166967 -0.09070456 -0.08474749 0.024969798 -0.13337697
-0.077317216 0.056131568 0.09787023 0.063027024 0.019326948 -0.05780357 0.007719988 0.11130943
-0.11305927 -0.07312519 -0.20467736 0.11587207 0.0056227036 0.04699196 -0.14682695 0.03162717
0.08284837 0.014542779 0.04655891 -0.03842166 -0.10662743 -0.05151031 0.00352632 0.08716163
0.051175192 0.15324417 0.1748926 -0.1137743 -0.020588307 0.13378322 -0.0690748 0.2752854
-0.17827429 0.14884457 -0.10371938 -0.06231092 -0.097341225 0.040386807 -0.04873617 0.040396728
-0.17886125 0.23738417 0.05351258 -0.20186889 -0.08210381 0.0024416384 -0.10514648 0.08183439
0.050667368 -0.13617551 -0.22602463 0.02882894 0.24027465 0.04316825 0.053966854 -0.0028296155
0.0097229015 -0.017347697 0.0049827844 0.14976564 -0.19016469 -0.21039578 0.0037893166 0.14263943
-0.05679512 -0.23442465 -0.09718801 0.011566834 -0.11744796 -0.1079078 0.03796576 -0.11110558
0.025264284 -0.13766459 -0.132057 0.15334198 -0.16480672 0.16663794 0.085087396 0.09051184
00000000: 6c23 e0bd f03f e9bd 071e 2abd 3709 bcbd
00000010: 83b5 ad3d a76f ebbd 9b11 9bbc 1570 c6bd
00000020: 354e 233d 6985 ea3d e76b b33d a2bb ad3c
00000030: db72 7cbd 1f67 50bd f99b 5c3d c1f3 f8bd
00000040: 8ebe b13d 5e99 8abd 5aed a83d 878c 9d3d
00000050: 1b09 6f3d 0185 36bd 368c cc3d 948b 8dbd
00000060: bf83 f9bc eb06 c63d a08f ce3d 616d cebd
00000070: 9a68 89bd 55bf 9e3d b4f3 3a3d 6ca9 8e3d
00000080: 225e e53d 8879 8f3b 3a18 d33d e89e c8bd
00000090: ff11 ebbd b5eb c9bd fb51 293d 43f4 a0bd
000000a0: 1518 b8bc 2e93 a73d 52f6 c8bc ccf6 b4bd
000000b0: 86c1 afbc 4f3f 943d 53fd 963d cb48 debd
000000c0: 6de6 5e3d 03f0 a03d f438 d0bb 8628 01be
000000d0: 82e3 9dbd f0fc 433d 3a66 5ebd 15a5 cc3d
000000e0: 0618 793d 2388 833d ef18 d33d 5f80 a3bc
000000f0: e301 8abd f1f9 dabd 8173 783d d6d1 b63d
00000100: cb4e 993d 58e0 863d 8e6e c9bc 779b fbbd
00000110: ddfa a43c bd6a 2a3e aa22 63bd 1f58 e739
00000120: bdd2 a7bd 0973 9f3c 05fd 613d 1a6c 06be
00000130: 302d e13c 6c9d 173e 8949 953c ecce 3fbe
00000140: 1e76 e8bc 540b b3bb 63ef 5f3c a32b fabd
00000150: 2b1d 013e f76e af3d 37c9 523b e2f4 043e
00000160: 97f3 0d3e 0993 6e3d 1ce6 deba 04c4 a53b
00000170: 5df3 9b3d c0e5 883d c7ae 163d badb 94bd
00000180: 4c8e fe3d ffc3 eebb 6c53 2d3d 45b4 b5bd
00000190: c482 67bd 2d2e 2bbe 0b36 cd3d 44d3 f63d
000001a0: 6aed af3c 6600 31bd edb5 1e3d 1aae b03d
000001b0: 790e 74bc f0bb 2ebd f3ea cdbd 7089 d4bc
000001c0: 95ad 98bd bda3 c53d 67d5 05be 5311 4f3d
000001d0: 0a3e 333e 57b7 f2bd 8062 d03d b8e3 0cbe
000001e0: ff99 cb3d 0567 63bd 0ef5 a6bd 2c03 ab3d
000001f0: efa5 e9bc 3ccf aabd 966f 5dbd f975 c0bc
00000200: 3348 c53d 9b8c 87bd ebe8 c23d 5aca a43e
00000210: 54cd 5b3e 4933 8fbd 8940 f5bd 0c0c 87bd
00000220: b80e f73d 160e 083e 3f53 d43c b2ea 0f3e
00000230: 6ebe af3b 2ade 99bd b8b7 0fbe 19b6 943d
00000240: b089 163e 1433 803c 1e2b e9bd 7e35 2f3c
00000250: 13d1 103c 1b9a 663e 5950 44be f27f e63d
00000260: c5f3 d03d a095 073d 0bc1 de3d 4ea9 2d3d
00000270: 26c7 093c e181 97bd e34a f93d 29d2 8d3d
00000280: a76d 28be 370a b2bd 62ca 97bd 0b1a 0d3e
00000290: 23ed a83d 92e4 9c3c 3121 ebbd aba0 9f3d
000002a0: 51ab 42bc 4241 f73b 614f 5e3e 0eb8 013d
000002b0: 50c3 b9bd 1890 adbd 768d cc3c f993 08be
000002c0: 7d58 9ebd 37ea 653d 3070 c83d 5014 813d
000002d0: 8c53 9e3c 70c3 6cbd f4f7 fc3b 33f6 e33d
000002e0: 9e8b e7bd a9c2 95bd f196 51be 564e ed3d
000002f0: a83e b83b a47a 403d ce59 16be 7e8b 013d
00000300: 68ac a93d d644 6e3c 8eb4 3e3d 0860 1dbd
00000310: 7b5f dabd 7afc 52bd d519 673b cc81 b23d
00000320: 149d 513d 0aec 1c3e 0c17 333e 8002 e9bd
00000330: cfa8 a8bc 78fe 083e 1777 8dbd 35f2 8c3e
00000340: 898d 36be b66a 183e d46a d4bd bc39 7fbd
00000350: d65a c7bd a36c 253d 949f 47bd 0a77 253d
00000360: 6727 37be d614 733e 0230 5b3d b8b6 4ebe
00000370: 0b26 a8bd e503 203b 0a57 d7bd ca98 a73d
00000380: 9688 4f3d 9871 0bbe 0073 67be ab2a ec3c
00000390: 8f0a 763e 31d1 303d 590c 5d3d 1271 39bb
000003a0: ce4c 1f3c c21c 8ebc a046 a33b 2a5c 193e
000003b0: 88ba 42be fe71 57be 2f56 783b 1210 123e
000003c0: 00a2 68bd 040d 70be 820a c7bd d182 3d3c
000003d0: 8e88 f0bd c4fe dcbd fc81 1b3d 538b e3bd
000003e0: 0bf7 ce3c f2f7 0cbe f339 07be ae05 1d3e
000003f0: 18c3 28be 23a3 2a3e 4d42 ae3d 465e b93d

linear_relu_stack.0.bias f4 [67]
-0.0680158 0.05403792 0.14744706 -0.106041305 0.44438073 -0.11172715 -0.092131 -0.09967068
-0.34180272 -0.08210951 -0.1191557 -0.06590156 -0.17326187 -0.039447207 -0.025831066 -0.046778206
-0.05457229 -0.10008206 0.088682845 -0.24205138 0.020644117 0.043803487 -0.036793843 -0.09251966
-0.06495272 -0.1813545 0.010918434 -0.0764017 0.45270178 -0.09371611 -0.29295102 0.10249889
-0.06341009 -0.23927797 0.0461183 -0.118088946 -0.09723374 -0.2300278 0.037533727 0.07075285
0.027554533 -0.20193407 -0.101092994 0.2685963 0.020060835 -0.106788665 0.4376544 -0.07616997
0.047890346 -0.11578582 0.11345384 0.17783119 -0.19358037 -0.12802759 -0.07845183 0.08230862
-0.10471442 -0.019825052 -0.17209342 -0.33533168 0.41034997 0.048955165 -0.0562922 0.14895785
0.056264665 -0.27282593 -0.049304556
00000000: de4b 8bbd de56 5d3d 5dfc 163e 2f2c d9bd
00000010: df85 e33e 34d1 e4bd 2daf bcbd 2420 ccbd
00000020: c400 afbe 0829 a8bd e707 f4bd 66f7 86bd
00000030: 8f6b 31be 6593 21bd ac9b d3bc 819a 3fbd
00000040: 3287 5fbd d3f7 ccbd 5a9f b53d 51dc 77be
00000050: da1d a93c 496b 333d 24b5 16bd f37a bdbd
00000060: ef05 85bd feb4 39be 3be3 323c 7f78 9cbd
00000070: 87c8 e73e 3bee bfbd adfd 95be f0ea d13d
00000080: 26dd 81bd 4905 75be 8be6 3c3d 9ed8 f1bd
00000090: 7c22 c7bd 688c 6bbe f7bc 193d dfe6 903d
000000a0: 0bba e13c cec7 4ebe d809 cfbd 7485 893e
000000b0: 9f56 a43c 04b4 dabd 3d14 e03e 00ff 9bbd
000000c0: ab28 443d 1e21 edbd 7d5a e83d 6119 363e
000000d0: ef39 46be aa19 03be 5aab a0bd 6c91 a83d
000000e0: 8474 d6bd 2668 a2bc 4239 30be 98b0 abbe
000000f0: 6419 d23e 3685 483d a692 66bd 6888 183e
00000100: c775 663d d7af 8bbe 93f3 49bd

linear_relu_stack.2.weight f4 [67, 67]
-0.02140214 -0.021436146 -0.11421018 0.026713025 -0.081922084 0.13617481 -0.05703177 -0.07936306
0.14452992 0.121739246 -0.04620397 0.10077701 0.12794366 -0.14573093 -0.115606 0.13686354
0.07170775 0.020157484 0.085018404 -0.07178309 -0.07576666 0.051308047 -0.02898876 0.066131815
0.08511537 0.1358166 -0.067866914 -0.012910283 0.010885836 0.04057444 0.1168356 -0.11898949
0.013973087 0.006738226 -0.05904292 -0.0796035 -0.076180756 0.07381342 -0.06947569 0.10187833
-0.0069529093 0.11321478 0.027195195 -0.06911845 0.03075665 0.06599342 -0.15955046 0.04245558
0.06977941 0.1168666 0.02799395 -0.13936749 0.09478676 0.03236883 0.1282054 0.08140082
0.099967316 -0.021642445 0.14197837 0.1162135 -0.12977827 0.03911548 0.045245476 -0.08931507
0.084258474 0.10467985 -0.048534337 0.018216977 -0.08778366 0.12340748 -0.016507857 0.099959776
-0.028912993 0.021029156 -0.0040401686 0.04007236 -0.11342952 0.06831466 -0.114759885 0.028432127
0.03382149 0.095690876 0.037644938 -0.093159735 0.10891896 -0.095921695 0.00020381711 -0.0841035
-0.08317848 0.03227492 -0.00719578 -0.034802888 -0.07277346 0.12731893 -0.073691584 0.10594202
-0.017828966 -0.09196846 0.11798531 -0.026406446 0.06809433 0.056588847 -0.10695825 -0.0031933314
0.038255014 0.101476036 0.07175015 0.07028196 0.077726394 0.051202685 -0.0036087532 0.019083347
0.124177076 -0.07165942 -0.015273787 -0.060116597 0.07894188 -0.024516467 0.06892173 -0.1013528
-0.11037518 -0.03696102 -0.07003233 0.12366696 0.06604209 0.040836405 0.0842999 -0.017082263
-0.07075698 -0.017840672 -0.082526505 0.036346473 -0.033516504 0.06937318 -0.078902006 0.04455649
0.026656324 -0.04527405 0.37428436 0.057637386 0.010987 0.045345653 -0.019573543 -0.03551487
-0.11114261 0.122443676 -0.08386361 0.112331785 0.09835337 -0.14661294 0.08378115 -0.016191024
-0.11181964 -0.16076885 0.10021161 -0.03366956 0.09975458 -0.026714807 0.00078944734 0.0017791578
-0.12654288 -0.09599265 0.22555421 -0.09483553 -0.059184145 -0.07156922 -0.10131889 0.011066327
0.30741397 -0.0047612484 0.02225063 -0.092489965 0.113020755 -0.107098825 0.015676608 -0.16109423
-0.0054244823 0.16931313 0.018262839 0.10052991 0.32775453 -0.010293457 -0.0999142 0.098882124
-0.009434386 0.18104306 0.008668182 0.045174785 0.08757698 0.094485074 0.06415473 -0.06299456
-0.14204264 -0.068862654 0.28013852 -0.056925327 -0.0056892526 -0.06844647 0.047526617 -0.14664523
-0.016188335 -0.061889537 0.12538715 0.066889 0.021872435 0.26188937 -0.02643744 -0.042421892
-0.12122653 -0.015418559 -0.0559739 -0.09856429 -0.101482324 0.03906837 -0.010780224 0.009658202
0.03738774 0.04298026 -0.15298875 -0.11815175 -0.0034160612 0.07904179 -0.114139535 0.11163712
0.0777387 0.13261151 -0.143469 0.0022559522 0.09684196 0.29688346 0.0021011815 -0.18078232
-0.02993398 0.0569982 0.010741622 0.4251059 0.0005118569 -0.0454865 -0.10368476 -0.060900632
0.04595163 -0.03874322 -0.021212894 -0.15333462 0.43477935 0.09581978 0.014698026 0.22892107
0.064890824 -0.07777619 -0.117582336 0.107453935 0.25776896 0.020042147 0.04008064 -0.028331695
00000000: 8a53 afbc db9a afbc 07e7 e9bd 46d5 da3c
00000010: c4c6 a7bd 6971 0b3e 259a 69bd 1a89 a2bd
00000020: a7ff 133e 6d52 f93d 6040 3dbd 2d64 ce3d
00000030: aa03 033e 7d3a 15be d7c2 ecbd f525 0c3e
00000040: 83db 923d 4f21 a53c 211e ae3d 0303 93bd
00000050: 8d2b 9bbd 6328 523d d679 edbc 1e70 873d
00000060: f850 ae3d 8213 0b3e cffd 8abd a785 53bc
00000070: 815a 323c 6231 263d 8147 ef3d c3b0 f3bd
00000080: 60ef 643c 56cc dc3b fdd6 71bd 2907 a3bd
00000090: a804 9cbd 7e2b 973d 4549 8ebd 96a5 d03d
000000a0: 3bd5 e3bb 27dd e73d 75c8 de3c f98d 8dbd
000000b0: 5ff5 fb3c 8f27 873d 3261 23be e7e5 2d3d
000000c0: 82e8 8e3d c257 ef3d 9153 e53c 5ab6 0ebe
000000d0: 901f c23d 2e95 043d 4748 033e 79b5 a63d
000000e0: aabb cc3d 7f4b b1bc c762 113e 5801 ee3d
000000f0: 98e4 04be 8e37 203d 5253 393d d2ea b6bd
00000100: b58f ac3d 6462 d63d f1cb 46bd c53b 953c
00000110: ebc7 b3bd 10bd fc3d 7c3b 87bc b6b7 cc3d
00000120: f1da ecbc 5645 ac3c 6463 84bb ea22 243d
00000130: bc4d e8bd 8ee8 8b3d 3b07 ebbd 7eea e83c
00000140: 6788 0a3d 94f9 c33d 9431 1a3d 88ca bebd
00000150: e710 df3d 9872 c4bd bdb7 5539 753e acbd
00000160: 7b59 aabd b532 043d 94ca ebbb 798d 0ebd
00000170: 400a 95bd e55f 023e 9deb 96bd 21f8 d83d
00000180: 0d0e 92bc f659 bcbd 48a2 f13d 5552 d8bc
00000190: 0a75 8b3d b5c9 673d ed0c dbbd 3647 51bb
000001a0: 4ab1 1c3d abd2 cf3d bef1 923d fdef 8f3d
000001b0: 042f 9f3d e8b9 513d d580 6cbb ae54 9c3c
000001c0: 8d50 fe3d 2dc2 92bd e83e 7abc d23c 76bd
000001d0: 48ac a13d c2d6 c8bc d626 8d3d 0f92 cfbd
000001e0: 620c e2bd 7064 17bd 1c6d 8fbd 1a45 fd3d
000001f0: 1341 873d 1344 273d 6da5 ac3d 1af0 8bbc
00000200: 09e9 90bd 9a26 92bc a803 a9bd 0ae0 143d
00000210: 9a48 09bd 8713 8e3d 6097 a1bd de80 363d
00000220: 5d5e da3c 4871 39bd 33a2 bf3e 2e15 6c3d
00000230: d102 343c 5dbc 393d b258 a0bc 0a78 11bd
00000240: bd9e e3bd c0c3 fa3d afc0 abbd 350e e63d
00000250: 7e6d c93d b421 16be 7495 ab3d 0aa3 84bc
00000260: b201 e5bd 97a0 24be bf3b cd3d 18e9 09bd
00000270: 214c cc3d 03d9 dabc eaf2 4e3a a132 e93a
00000280: 7594 01be cb97 c4bd aff7 663e 2139 c2bd
00000290: 136b 72bd e292 92bd 4780 cfbd 8a4f 353c
000002a0: 5d65 9d3e 3f04 9cbb f446 b63c 616b bdbd
000002b0: 6d77 e73d a156 dbbd 3b6c 803c e3f5 24be
000002c0: dbbf b1bb 6c60 2d3e f39b 953c a0e2 cd3d
000002d0: 71cf a73e e3a5 28bc d19f ccbd b682 ca3d
000002e0: af92 1abc 5a63 393e fe04 0e3c 3209 393d
000002f0: 8f5b b33d 6481 c13d 8e63 833d 4b03 81bd
00000300: a073 11be dd07 8dbd 516e 8f3e 882a 69bd
00000310: e96c babb aa2d 8cbd 45ab 423d 2b2a 16be
00000320: 669d 84bc e27f 7dbd 7d65 003e 1afd 883d
00000330: d22d b33c 5d16 863e 5593 d8bc 94c2 2dbd
00000340: 9d45 f8bd 209e 7cbc e344 65bd 13dc c9bd
00000350: f7d5 cfbd 2806 203d 899f 30bc 6f3d 1e3c
00000360: e323 193d 120c 303d 15a9 1cbe 8bf9 f1bd
00000370: ffdf 5fbb a9e0 a13d fdc1 e9bd 01a2 e43d
00000380: 7835 9f3d 50cb 073e 8ae9 12be 99d8 133b
00000390: 1455 c63d 1c01 983e fab3 093b 001f 39be
000003a0: 1b38 f5bc f276 693d a1fd 2f3c 7ba7 d93e
000003b0: 232e 063a 0d50 3abd ad58 d4bd f172 79bd
000003c0: c737 3c3d 36b1 1ebd aac6 adbc c003 1dbe
000003d0: 669b de3e 293d c43d fdcf 703c 496a 6a3e
000003e0: 7be5 843d 2049 9fbd 02cf f0bd cf10 dc3d
000003f0: 4bfa 833e 6e2f a43c 992b 243d df17 e8bc

linear_relu_stack.2.bias f4 [67]
0.01548667 -0.053267244 0.1794002 0.37817174 -0.097550474 -0.06365109 -0.09325077 0.05661471
0.052071813 0.1834847 0.092747875 0.25027835 -0.08862786 0.11612176 -0.082407646 -0.06492196
-0.05652291 -0.10155135 0.07263345 0.2401288 -0.03048158 -0.115429826 -0.056934305 0.06830478
-0.051194534 -0.008726887 0.20010684 0.019431692 0.06069692 0.02260823 0.042290296 0.021271931
-0.030910525 0.21265563 -0.07324992 0.12468469 0.28517112 -0.032730523 -0.0044840034 0.22140028
-0.002503093 -0.018872939 0.03139904 -0.077335685 -0.01951126 -0.058294207 0.053348757 0.11732453
0.067690834 0.016329018 0.078423135 -0.14228469 -0.1102736 0.09117497 -0.037223738 -0.044823263
-0.07089024 0.20610106 0.19515388 -0.12899575 0.02867836 0.09153452 0.04885786 0.02302873
0.032625575 0.023640834 -0.06392015
00000000: cdbb 7d3c c12e 5abd b0b4 373e ba9f c13e
00000010: 8bc8 c7bd 815b 82bd 42fa bebd d3e4 673d
00000020: 4149 553d 6ae3 3b3e 99f2 bd3d 7c24 803e
00000030: 8682 b5bd 3fd1 ed3d 57c5 a8bd cef5 84bd
00000040: 9184 67bd 27fa cfbd d9c0 943d 53e4 753e
00000050: 82b4 f9bc 7966 ecbd f233 69bd 60e3 8b3d
00000060: 5cb1 51bd 38fb 0ebc cfe8 4c3e 362f 9f3c
00000070: 559d 783d e534 b93c 9738 2d3d 7942 ae3c
00000080: 1238 fdbc 66c2 593e 0e04 96bd b05a ff3d
00000090: f301 923e 7110 06bd 8cee 92bb c1b6 623e
000000a0: ef0a 24bb 6c9b 9abc 489c 003d 2c62 9ebd
000000b0: 14d6 9fbc e8c5 6ebd 3a84 5a3d d847 f03d
000000c0: 7ea1 8a3d 6fc4 853c 4f9c a03d 14b3 11be
000000d0: 20d7 e1bd f1b9 ba3d eb77 18bd 9998 37bd
000000e0: e72e 91bd 280c 533e 6bd6 473e 7617 04be
000000f0: e1ee ea3c 7376 bb3d 2e1f 483d bfa6 bc3c
00000100: 65a2 053d 6caa c13c 91e8 82bd

linear_relu_stack.4.weight f4 [1, 67]
0.3430251 -0.10657851 -0.72550833 -0.89151317 0.023636473 0.72142416 0.33617517 0.020298034
-0.1315283 -0.4197679 -0.2809345 -0.44197816 -0.05150824 -0.23434334 -0.08790026 0.051789764
-0.26092952 0.07389325 0.9523289 -0.69312364 -0.11438694 0.07580796 -0.007985615 0.004831871
0.060245354 0.37404197 -0.6841642 0.25481364 -0.047868934 -0.03953996 0.82360846 0.022067467
0.30361804 -0.54229206 0.010751573 -0.5421789 -0.52211875 -0.078573845 0.32312027 -0.6687625
0.26942003 0.04911507 -0.0882541 0.09303356 0.540499 -0.00039794034 0.094586276 -0.5029743
0.6135077 0.37617305 -0.45674554 0.084414765 0.018900221 0.0021433975 0.362122 -0.013329014
0.17584918 -0.5360551 -0.42387474 0.42986062 0.01408328 -0.21816374 0.6557471 0.6374294
-0.09491204 0.39346483 0.049807344
00000000: fca0 af3e d545 dabd eaba 39bf 353a 64bf
00000010: 47a1 c13c 41af 383f 271f ac3e 1048 a63c
00000020: 5baf 06be d1eb d6be a6d6 8fbe f64a e2be
00000030: 4efa 52bd b3f7 6fbe 0d05 b4bd 8121 543d
00000040: 8e98 85be 5855 973d d4cb 733f 8d70 31bf
00000050: b343 eabd 3441 9b3d 19d6 02bc ac54 9e3b
00000060: d5c3 763d 6e82 bf3e 6325 2fbf ef76 823e
00000070: 3712 44bd a7f4 21bd 01d8 523f d5c6 b43c
00000080: d373 9b3e a7d3 0abf 5e27 303c 3dcc 0abf
00000090: 93a9 05bf 53eb a0bd 0570 a53e 0534 2bbf
000000a0: 6cf1 893e e22c 493d 91be b4bd 6188 be3d
000000b0: 245e 0a3f a6a2 d0b9 73b6 c13d ecc2 00bf
000000c0: d70e 1d3f c199 c03e 8dda e9be a6e1 ac3d
000000d0: a3d4 9a3c 3e78 0c3b 0e68 b93e f061 5abc
000000e0: cf11 343e e83a 09bf 1c06 d9be b116 dc3e
000000f0: 8fbd 663c 5166 5fbe 0bdf 273f 932e 233f
00000100: 3e61 c2bd 3974 c93e c902 4c3d
