Code/network_saves/save.pt (torch, 14999 bytes, 5 tensors)

linear_relu_stack.0.weight f4 [39, 39]
0	0xbd58301e	-0.052780263
1	0x3bdc278b	0.006718581
2	0x3dca692f	0.098833434
3	0xbd1f57ec	-0.03890221
4	0xbd436407	-0.047702815
5	0xbd82c715	-0.06385628
6	0x3e083392	0.13300923
7	0x3e138094	0.14404517
8	0x3db181f6	0.08667366
9	0x3e11313d	0.14178939
10	0xbd0ab1d9	-0.033861015
11	0xbe17d7e9	-0.14828457
12	0x3d6fd663	0.058554064
13	0x3d0e39c9	0.034723077
14	0x3cd3452c	0.02578982
15	0xbdf9cc82	-0.1219721
16	0x3e271649	0.16317095
17	0x3d58f7b4	0.052970603
18	0x3cbc7feb	0.023010215
19	0x3c52a3c3	0.012856427
20	0xbd585063	-0.052811038
21	0x3c63246d	0.013863665
22	0x3dda7085	0.10665993
23	0xbc2e9650	-0.0106559545
24	0xbdf12478	-0.11774534
25	0xbd699d31	-0.057034675
26	0xbd730f20	-0.059340596
27	0x3e196c5e	0.14982745
28	0x3d90b9a3	0.070666574
29	0x3d7b53c6	0.06135919
30	0x3dc30ecd	0.095243074
31	0x3dad4289	0.08459956
32	0x3d7d9822	0.061912663
33	0x3da019fa	0.07817455
34	0x3d9b5d2a	0.07586129
35	0x3d04da68	0.03243485
36	0x3d8771a1	0.0661347
37	0xbd83a833	-0.06428566
38	0xbda93596	-0.08262174
39	0xbca2f3b4	-0.019891597
40	0xbe0c82ed	-0.13721819
41	0xbe16f76c	-0.14742821
42	0x3e047ad1	0.12937476
43	0xbdbdcdad	-0.09267745
44	0x3dd85990	0.10563958
45	0x3e0b28cf	0.13589786
46	0x3ce281a5	0.02764971
47	0x3d8db579	0.06919379
48	0xbca12aa9	-0.019673662
49	0xbe19cfb2	-0.15020636
50	0xbd9ddc92	-0.07708086
51	0xbe211fdb	-0.15734808
52	0xbd5b0db8	-0.05347988
53	0xbe216895	-0.15762551
54	0xbde1e631	-0.11030234
55	0x3d619b24	0.055079594
56	0x3da5bd25	0.08092717
57	0x3cf76fda	0.030204702
58	0xbd95afde	-0.07308935
59	0xbd80afd6	-0.06283538
60	0x3bd4bb95	0.006492088
61	0xbdda13ca	-0.10648306
62	0x3d9c5570	0.076334834
63	0xbde010e8	-0.109407246
64	0x3d070571	0.032964174
65	0x3d8cee1d	0.06881354
66	0xbd3106b0	-0.04321927
67	0x3df14b56	0.11781947
68	0x3e13bd70	0.14427733
69	0x3d58f3fd	0.05296706
70	0xbdd4d90c	-0.10392961
71	0x3d4c01b2	0.049806304
72	0x3c6d3db9	0.014480048
73	0x3b54f682	0.0032495563
74	0xbcef66d9	-0.029223846
75	0x3da52b30	0.08064878
76	0xbb34d988	-0.002759548
77	0xbd35fe4e	-0.044431977
78	0x3daa09b6	0.083026335
79	0xbe077242	-0.1322718
80	0xbdffb04e	-0.12484799
81	0xbc932177	-0.017960293
82	0xbd42db1a	-0.047572233
83	0x3dee4fe3	0.11636331
84	0xbd92d413	-0.07169356
85	0x3d9dd989	0.07707507
86	0xbd819c10	-0.06328595
87	0x3e00f332	0.12592772
88	0xbddb1376	-0.10697071
89	0xbcad4dfc	-0.02115535
90	0x3e13b470	0.144243
91	0xbddd2151	-0.1079737
92	0x3cf68c96	0.030096333
93	0xbd9ba057	-0.07598942
94	0xbd6a957a	-0.05727146
95	0x3d835c85	0.06414131
96	0x3d77a0fe	0.06045627
97	0x3d878ac0	0.06618261
98	0x3d924a3a	0.07143064
99	0x3c871389	0.016488807
100	0xbba07a36	-0.004897381
101	0x3d457a75	0.048212487
102	0x3e0bf6b3	0.13668327
103	0x3d3428bf	0.04398417
104	0xbc08773e	-0.008329211
105	0x3dcec8fc	0.100969285
106	0xbd7ba8fd	-0.061440457
107	0xbca859bb	-0.0205506
108	0x3d61f6e6	0.0551671
109	0xbdb3be52	-0.08776535
110	0xbe1fd8d5	-0.15610059
111	0xbc8a352e	-0.016871061
112	0x3d8e12ef	0.06937205
113	0x3dcb25a5	0.099192895
114	0x3d6b23eb	0.0574073
115	0xbd901b53	-0.07036462
116	0xbca6e06d	-0.020370686
117	0x3d84a30a	0.0647641
118	0x3d1bc741	0.03803182
119	0xbdbaa992	-0.09114374
120	0xbde7b591	-0.11313928
121	0x3df00de6	0.11721401
122	0xbdb2e935	-0.08735887
123	0xbd8bfc5d	-0.06835244
124	0x3da5ea9f	0.08101391
125	0xbe211c2a	-0.157334
126	0x3da6c976	0.081438944
127	0x3dcbd76f	0.099532
128	0xbd8ddcb5	-0.06926862
129	0x3bfc3907	0.007697228
130	0xbd246949	-0.04013947
131	0xbd100b2f	-0.035166916
132	0x3dea38a8	0.114365876
133	0x3e183d1f	0.14867066
134	0x3d28789f	0.04113066
135	0x3e04b583	0.12959866
136	0x3dbe8c4a	0.09304102
137	0x3c03904d	0.008030009
138	0x3dcd099e	0.100116
139	0x3cd7c3b9	0.026338445
140	0xbd108c50	-0.035290062
141	0xbc8749f8	-0.016514763
142	0xbd0bd596	-0.03413924
143	0x3c0354ec	0.008015852
144	0x3dbfe129	0.09369118
145	0x3d29e9ea	0.041482843
146	0x3d1d6869	0.03842965
147	0xbb1c65d1	-0.0023864398
148	0x3b90ed30	0.004422806
149	0x3d03de5c	0.03219448
150	0x3df3d093	0.11905017
151	0xbddca9c5	-0.107745685
152	0x3d804634	0.0626339
153	0x3d85116e	0.06497465
154	0xbc9fdccb	-0.019514462
155	0x3ca8cd74	0.02060578
156	0xbe1475a4	-0.14498001
157	0x3dce566c	0.100750774
158	0xbe065b41	-0.13120748
159	0x3d7c6a2c	0.06162469
160	0x3d9142d7	0.07092827
161	0x3db8f112	0.090303555
162	0xbe1474a7	-0.14497624
163	0x3d50f93c	0.05101894
164	0x3cc2c677	0.023776276
165	0xbd411b80	-0.047145367
166	0x3d21761e	0.039419286
167	0x3df81ddd	0.12115071
168	0xbe2090cd	-0.15680237
169	0xbe1c3264	-0.15253597
170	0x3d9ed925	0.07756261
171	0xbcf96dc8	-0.030447856
172	0xbdac3f4c	-0.084105104
173	0xbd41f7c2	-0.04735542
174	0xbdb17b00	-0.086660385
175	0xbe057dd7	-0.13036285
176	0x3e0e7a20	0.13913774
177	0xbd686517	-0.05673703
178	0xbc74a33d	-0.014931497
179	0x3dc73169	0.09726221
180	0xbdca780d	-0.09886179
181	0xbab89c39	-0.0014084644
182	0x3dc9d0f5	0.098543085
183	0x3d1b4144	0.03790404
184	0xbd3c923c	-0.046037897
185	0x3d43dd02	0.04781819
186	0x3d8f7b7a	0.07005973
187	0xbe20c797	-0.15701137
188	0x3d12201e	0.03567516
189	0x3dc5d33d	0.09659431
190	0xbe00ea45	-0.12589367
191	0xbc901971	-0.017590256
192	0x3d0b43e9	0.03400031
193	0x3de0559f	0.10953831
194	0xbd2df629	-0.042471085
195	0x3e24c6f6	0.16091523
196	0xbd3c214f	-0.045930203
197	0xbd53f26e	-0.05174487
198	0xbe0e674a	-0.13906589
199	0x3e099132	0.13434294
200	0x3d450785	0.048102874
201	0x3e069a33	0.1314476
202	0x3d745b65	0.059657473
203	0x3dd74d28	0.10512763
204	0x3d9185ed	0.071056224
205	0x3ce0d363	0.027444547
206	0x3d39aa83	0.04532863
207	0xbd1497dc	-0.036277637
208	0x3e0d6459	0.13807811
209	0xbe09c263	-0.13453059
210	0xbc52eced	-0.01287387
211	0xbca87aa9	-0.020566301
212	0xbd8f1b06	-0.06987576
213	0xbdc8d46a	-0.0980614
214	0x3de53e62	0.11193539
215	0xbe225184	-0.15851408
216	0xbe1385c8	-0.14406502
217	0x3d29d133	0.041459274
218	0xbce1255a	-0.02748363
219	0x3e1226e1	0.14272644
220	0xbe123210	-0.1427691
221	0xbdf9b8b7	-0.12193435
222	0x3e09b462	0.13447717
223	0xbd3a8e37	-0.045545783
224	0xbba6d441	-0.0050912206
225	0x3d821e3f	0.06353425
226	0x3e1a6778	0.15078533
227	0x3dd8479a	0.10560532
228	0xbbd5d71e	-0.006525888
229	0xbdab7937	-0.08372729
230	0xbd90b97f	-0.070666306
231	0xbdaf4d9e	-0.08559726
232	0x3deaaf72	0.11459245
233	0xbd22e39f	-0.039767858
234	0x3d9f369e	0.07774089
235	0x3e162967	0.14664231
236	0xbbc70ec7	-0.0060747596
237	0x3cd58e71	0.026068898
238	0xbd0bdf00	-0.034148216
239	0x3df2858a	0.11841877
240	0xbe18bf9c	-0.14916843
241	0x3d2d9cd6	0.0423859
242	0xbd260f62	-0.040542014
243	0xbcf95d8e	-0.030440118
244	0xbd90cfa5	-0.07070855
245	0xbdf9c790	-0.12196267
246	0x3d13c036	0.03607198
247	0x3dcb8986	0.0993834
248	0x3d2f0d4f	0.0427373
249	0x3deb2454	0.114815384
250	0xbda801c2	-0.0820346
251	0xbdc195a5	-0.094523706
252	0x3de5deab	0.11224111
253	0xbc260c31	-0.010134743
254	0xbe13aa18	-0.14420354
255	0xbdf13fd7	-0.117797546

linear_relu_stack.0.bias f4 [39]
0	0xbce3c74c	-0.027804993
1	0x3d0b4e66	0.034010313
2	0x3dfc27b2	0.12312259
3	0xbbdb43a6	-0.006691414
4	0xbd7169b8	-0.058938712
5	0x3d88f58a	0.06687458
6	0xbd8d8a5a	-0.06911154
7	0xbc7ca57d	-0.015420315
8	0xbca46300	-0.020066738
9	0xbdebc5ac	-0.11512312
10	0x3e0a2b91	0.13493182
11	0xbd24dfd6	-0.04025253
12	0xbdf1d075	-0.11807338
13	0xbdb39bf3	-0.08769979
14	0xbc62f6b4	-0.013852764
15	0x3e0b5063	0.13604884
16	0xbdcf7c80	-0.10131168
17	0xbe0623f0	-0.13099647
18	0xbd8ff2a4	-0.07028702
19	0x3d0af3c0	0.033923864
20	0x3d8b24fd	0.06794164
21	0x3d6b2ab8	0.057413787
22	0x3cc0335f	0.023461996
23	0xbd0adcd4	-0.033902004
24	0xbd09cb78	-0.03364131
25	0x3d8e9bfb	0.06963345
26	0x3daf7bf4	0.08568564
27	0x3d1d792c	0.038445637
28	0xbe1184ed	-0.14210863
29	0xbd89c789	-0.067275114
30	0x3c811890	0.015758783
31	0xbc9f0976	-0.019413691
32	0xbe0bfae1	-0.13669921
33	0xbcfb9415	-0.03071026
34	0x3e0a48a7	0.13504277
35	0x3e3ea7e9	0.1861874
36	0xbc9aa43e	-0.018877145
37	0x3d9e5738	0.077314794
38	0xbd2c7408	-0.042102844

linear_relu_stack.2.weight f4 [39, 39]
0	0x3deada13	0.114673756
1	0x3c0d17f2	0.008611666
2	0x3d623930	0.05523032
3	0xbd8ef461	-0.06980205
4	0x3ce35155	0.027748743
5	0xbc2446ef	-0.0100266775
6	0xbd4fe9e5	-0.05076017
7	0xbd499d53	-0.0492223
8	0xbdc5ccb9	-0.096581884
9	0xbdc435ba	-0.0958056
10	0xbc51ace0	-0.012797564
11	0x3df2d710	0.11857426
12	0xbd502a30	-0.050821483
13	0x3dcd3bfd	0.100212075
14	0x3d8104ec	0.06299767
15	0x3d7649a8	0.060128838
16	0xbd6be354	-0.057589844
17	0xbdd51152	-0.10403694
18	0xbe029eb3	-0.12755851
19	0x3d099864	0.033592597
20	0x3d967f9a	0.07348557
21	0xbdefdc2e	-0.11711918
22	0x3d5e3f17	0.054259386
23	0xbb972720	-0.0046128184
24	0x3d38c7eb	0.04511253
25	0xbdfb1f54	-0.12261835
26	0xbe16a8ca	-0.14712825
27	0xbe204355	-0.15650685
28	0x3d90d3b9	0.07071633
29	0x3c259720	0.010106832
30	0x3c0eaa59	0.008707606
31	0xbdd5aa01	-0.10432816
32	0xbe20fa6a	-0.15720525
33	0x3e11cfde	0.14239451
34	0xbd37bde7	-0.04485884
35	0x3c7375f5	0.014859666
36	0x3e106431	0.1410072
37	0x3e209606	0.1568223
38	0xbb68178c	-0.0035414426
39	0xbdca5cee	-0.09881006
40	0x3e18da63	0.14927058
41	0xbd565b13	-0.05233295
42	0x3e17d397	0.14826809
43	0xbb0267d6	-0.0019898317
44	0xbde55c7b	-0.1119928
45	0xbddf359c	-0.10898897
46	0xbe052a09	-0.13004316
47	0x3d44e7dc	0.04807268
48	0xbccde7c9	-0.025134938
49	0x3e20f64d	0.15718956
50	0x3dc9b54b	0.09849032
51	0xbd5846de	-0.05280196
52	0xbde71ac4	-0.11284402
53	0x3d077f05	0.03308012
54	0xbd8cc1d9	-0.06872911
55	0x3ad0143b	0.001587517
56	0x3d0372a6	0.03209176
57	0x3aca8317	0.0015450445
58	0xbc9b71a5	-0.018975088
59	0xbded88af	-0.11598336
60	0xbcf12972	-0.029438708
61	0xbc8df7e3	-0.017330116
62	0xbd831b38	-0.06401676
63	0xbe0de4ee	-0.13856861
64	0xbddc9154	-0.10769907
65	0x3db43d3c	0.08800742
66	0xbd9aa28a	-0.07550533
67	0x3e171820	0.14755297
68	0x3cb675a9	0.022272902
69	0x3dd8475e	0.10560487
70	0xbde38cf3	-0.11110868
71	0xbdbdb5db	-0.09263202
72	0xbde26631	-0.11054648
73	0xbe1df79f	-0.15426491
74	0xbdfd1a22	-0.123585
75	0x3d81afca	0.06332357
76	0x3e231822	0.15927175
77	0x3d2afd2c	0.04174535
78	0x3e23ce6d	0.15996714
79	0x3b74048d	0.0037234158
80	0xbe20c02e	-0.1569831
81	0xbda98fdc	-0.08279392
82	0xbc5732e3	-0.013134691
83	0xbd4a9eac	-0.049467728
84	0xbd5d1793	-0.05397756
85	0xbe012e1c	-0.12615246
86	0xbce2661a	-0.027636576
87	0x3dcdf1be	0.10055874
88	0x3de0ee15	0.109829105
89	0x3acf34b1	0.001580855
90	0xbe08080e	-0.13284323
91	0xbe21c894	-0.1579917
92	0xbde94d3d	-0.11391685
93	0x3c0e7aa1	0.008696229
94	0xbe1f40b9	-0.15552033
95	0x3e0eabb9	0.13932694
96	0xbe0c2fa9	-0.13690056
97	0xbcd40e5d	-0.025885755
98	0xbc0a02ea	-0.008423546
99	0xbe0f63ed	-0.14002962
100	0x3b5ce1bb	0.0033703882
101	0x3e0f5d17	0.14000355
102	0xbd2fbf25	-0.0429069
103	0xbd1362b7	-0.035982814
104	0xbd0c7b4d	-0.034297276
105	0xbdc62d6c	-0.09676632
106	0xbd882f9f	-0.06649708
107	0xbde412ed	-0.11136422
108	0xbcb19e97	-0.021682067
109	0x3e068458	0.13136423
110	0x3c42d1ac	0.01189081
111	0xbcfc03fe	-0.030763622
112	0x3ca911eb	0.020638427
113	0x3e054772	0.13015535
114	0xbdfe1541	-0.124063976
115	0xbc989f1c	-0.018630557
116	0x3dc35ea3	0.09539535
117	0x3d5ab721	0.0533973
118	0xbe1b0ea4	-0.15142304
119	0xbce73072	-0.028221343
120	0xbe143d2d	-0.14476462
121	0x3cd69790	0.026195318
122	0xbd2cbb4f	-0.04217082
123	0x3c9ee6ff	0.019397257
124	0xbc874112	-0.01651052
125	0xbe07c882	-0.13260081
126	0x3dbd0331	0.09229124
127	0xbe1fa64d	-0.15590782
128	0x3c24cd34	0.01005869
129	0xbd5b656e	-0.053563528
130	0xbdae44ec	-0.085092396
131	0x3dd6f314	0.10495582
132	0xbd7ddf73	-0.061980676
133	0x3d3d12b2	0.046160407
134	0x3c5ac22d	0.013351959
135	0x3dc5c184	0.09656051
136	0x3daf0ac8	0.08546978
137	0xbd26142a	-0.040546574
138	0xbdc8e220	-0.09808755
139	0xbb686373	-0.0035459667
140	0xbd26dcc4	-0.040737882
141	0x3deec9f3	0.116596125
142	0x3d23c282	0.03998042
143	0xbd6e947f	-0.058247086
144	0xbdecc0ea	-0.11560233
145	0x3cbeffb1	0.023315283
146	0xbdaaf00d	-0.08346567
147	0xbd9aa2cd	-0.07550583
148	0xbe1f054c	-0.15529364
149	0xbd2079ff	-0.039178845
150	0x3d49bea7	0.049254086
151	0x3db22001	0.086975105
152	0x3c1536cf	0.009107306
153	0x3dfe4f9c	0.12417528
154	0x3d4851b8	0.048906058
155	0x3e08caf8	0.13358676
156	0x3da870ff	0.08224677
157	0x3d0fca2e	0.035104923
158	0xbd840a01	-0.064472206
159	0x3d7429b0	0.05961007
160	0xbdc8f4cf	-0.098123185
161	0x3cea01aa	0.028565247
162	0xbd94d8a0	-0.072678804
163	0xbcafe6fd	-0.021472448
164	0xbd80108d	-0.06253157
165	0x3cea6161	0.028610887
166	0x3dd8fa68	0.10594636
167	0xbcbe7f96	-0.023254197
168	0xbd04c2ef	-0.032412466
169	0x3e141256	0.1446012
170	0x3e110c7d	0.1416492
171	0xbceec0c1	-0.029144647
172	0x3d8ed4d8	0.069741905
173	0x3df3c63b	0.11903044
174	0x3e3919eb	0.18076293
175	0xbd7ed980	-0.062219143
176	0xbe2a6bbd	-0.16642661
177	0x3e050a5c	0.12992233
178	0xbc7bf4c8	-0.015378185
179	0x3e074491	0.1320975
180	0x3deba602	0.11506273
181	0xbdecef47	-0.11569076
182	0xbe12f4d8	-0.14351213
183	0x3e284d16	0.16435656
184	0x3da99813	0.08280959
185	0x3d90358f	0.070414655
186	0xbc549602	-0.012975218
187	0xbdc8c34a	-0.098028734
188	0xbd5f1aa8	-0.05446878
189	0xbd1c7f25	-0.038207192
190	0xbe089087	-0.13336383
191	0xbe2a12a4	-0.16608673
192	0x3e1770a4	0.14789063
193	0xbad1c723	-0.0016004782
194	0x3e1bfac8	0.15232384
195	0x3df88834	0.12135354
196	0xbb909ae8	-0.0044129975
197	0xbd0cb661	-0.034353618
198	0xbd6ba889	-0.057533775
199	0xbd78ea18	-0.060770124
200	0xbe185938	-0.14877784
201	0x3d3e5c0f	0.046474513
202	0x3d0ef105	0.034897823
203	0x3e090538	0.13380897
204	0x3e033e75	0.12816794
205	0x3dd1735b	0.102270804
206	0x3bf1a08b	0.0073738745
207	0xbc11f09c	-0.008907463
208	0x3e05fb46	0.13084134
209	0xbd12569f	-0.03572714
210	0x3e0d33d8	0.13789308
211	0xbddd9a67	-0.108204655
212	0x3dbed9d2	0.0931889
213	0xbd15f5ae	-0.03661125
214	0xbe041a22	-0.12900594
215	0xbda4874a	-0.08033617
216	0xbd1d5ef6	-0.03842064
217	0xbca1af81	-0.019737007
218	0x3c28b415	0.010296841
219	0x3e0149ba	0.1262578
220	0xbd27d75e	-0.040976875
221	0x3dd4ebd0	0.1039654
222	0x3d009a12	0.031396933
223	0xba73308b	-0.0009276948
224	0xbc163929	-0.0091689015
225	0xbe045848	-0.12924302
226	0x3e0278e9	0.12741436
227	0xbddda726	-0.10822897
228	0xbd2d7e28	-0.04235664
229	0x3e060acb	0.13090055
230	0xbd69f1d2	-0.057115383
231	0xbb88f9fb	-0.0041801906
232	0xbd932f49	-0.07186753
233	0x3e0251e0	0.12726545
234	0xbe0d510c	-0.13800448
235	0x3d5ca19f	0.05386507
236	0xbc976f81	-0.018485786
237	0xbde274d0	-0.110574365
238	0xbd29f9af	-0.041497882
239	0x3e209f84	0.1568585
240	0xbdbdd5c3	-0.092692874
241	0x3d605189	0.054765258
242	0x3ddf8b6d	0.10915265
243	0x3d304f29	0.043044243
244	0xbd3a5823	-0.04549421
245	0x3c9536c5	0.018214593
246	0xbdcb3d63	-0.09923818
247	0xbd1f9541	-0.0389607
248	0x3d8262c8	0.06366497
249	0x3cb8b77c	0.02254843
250	0xbd6716aa	-0.0564181
251	0x3d94813c	0.07251212
252	0xbd7614c1	-0.060078386
253	0xbd5d3128	-0.054001957
254	0xbd911455	-0.07083956
255	0x3e06b6d9	0.13155688

linear_relu_stack.2.bias f4 [39]
0	0xbd2acb9c	-0.041698083
1	0xbde62e42	-0.11239292
2	0x3d194ac4	0.037424818
3	0xbd948244	-0.07251409
4	0x3cf74bdd	0.030187542
5	0x3d3669d6	0.044534527
6	0xbd76e261	-0.060274485
7	0xbb7c9a36	-0.0038544065
8	0xbe091a53	-0.13388948
9	0x3ba70e35	0.005098129
10	0xbe0185c6	-0.12648687
11	0xbdf99aed	-0.12187753
12	0xbd861e4e	-0.06548749
13	0x3e1c1cb2	0.15245321
14	0xbd5e8195	-0.054322798
15	0x3d20ac69	0.039226923
16	0xbd56d955	-0.052453358
17	0x3d22e019	0.039764497
18	0xbccd3639	-0.02505027
19	0x3e578158	0.21045434
20	0x3d9d0102	0.07666208
21	0xbded456e	-0.11585508
22	0x3d3f2f7e	0.04667615
23	0xbd210869	-0.03931466
24	0xbdeba0ef	-0.11505305
25	0xbdc07792	-0.09397806
26	0x3c33b375	0.010968079
27	0xbd7b7f0e	-0.061400466
28	0x3de283fb	0.110603295
29	0xbd2ffcf4	-0.042965844
30	0x3d868812	0.06568922
31	0x3e4e9b34	0.20176393
32	0xbd916d72	-0.07100953
33	0xbc62dfbd	-0.013847289
34	0xbd2941ab	-0.04132239
35	0xbdb90f4b	-0.0903612
36	0x3c82bdba	0.01595961
37	0xbce44c5f	-0.027868448
38	0x3d44b13e	0.048020594

linear_relu_stack.4.weight f4 [1, 39]
0	0x3de7fb65	0.113272466
1	0xbdd1e1e6	-0.10248165
2	0xbd4ac648	-0.049505502
3	0xbdc28b4e	-0.094992265
4	0xbe54587e	-0.20736882
5	0xbdfb4206	-0.12268452
6	0xbdd9e81a	-0.10639973
7	0xbc920ad5	-0.01782743
8	0xbd9e1a05	-0.077198066
9	0x3cb8cc51	0.022558363
10	0x3d8281a3	0.063723825
11	0x3ce7989b	0.02827101
12	0xbe8016e5	-0.25017467
13	0x3e2fd6f9	0.1717185
14	0x3d91f3b4	0.07126561
15	0x3e3c13c1	0.1836691
16	0xbdca1bdd	-0.09868596
17	0xbe08e72c	-0.13369435
18	0xbac0f931	-0.0014722702
19	0x3e6fa232	0.23401716
20	0xbd31f3d3	-0.04344542
21	0x3dc0bb93	0.09410777
22	0xbd14113e	-0.036149256
23	0xbe81d4ce	-0.2535767
24	0x3e2277f3	0.1586607
25	0x3d8dbc68	0.06920701
26	0x3de96c22	0.11397578
27	0x3dec7dd0	0.11547434
28	0xbcd655aa	-0.026163895
29	0xbda1c7d6	-0.07899444
30	0xbe4eb516	-0.20186266
31	0x3e63c54b	0.2224323
32	0x3e14c62e	0.14528725
33	0xbc11c6bf	-0.008897482
34	0x3b1b5bfe	0.0023705955
35	0xbe11d6bf	-0.14242075
36	0x3c73951e	0.014867095
37	0xbdf26958	-0.11836499
38	0xbe4527fe	-0.19253537
