Code/network_saves/save.pt (torch, 86807 bytes, 5 tensors)

linear_relu_stack.0.weight f4 [102, 102]
00000000: a2c4 543e 6c7c a53d a026 ecbd 0b3f b0bd
00000010: 41b6 803e 3875 6ebe 68ab 973d c1ff 06be
00000020: dd35 673e ae80 eb3d bf77 373d cc56 58bd
00000030: 62b1 d63d d07f ff3d 04c9 723e 0eb5 a2be
00000040: 6270 f3bd aa97 0b3e 9b23 253e 2f3a 9a3d
00000050: 3f60 adbd 62a2 333e 1f69 a8bd 5dae 89bd
00000060: 2ee4 72bd f5c0 39bc 7989 88be c188 58bd
00000070: 65ad e43d 3fa5 95be 25ca 9bbe 7bb6 21be
00000080: d727 463e b2ce f83d 5d08 f2bc c251 453c
00000090: 9515 6c3e 4679 393d 3cc4 07bd 50b6 a0bd
000000a0: b519 e2bc 94ae 073c 1127 28bd 1927 aabc
000000b0: 1275 1b3e ee28 46be 84d9 babe 55b1 a0bc
000000c0: 165c 183c 0036 90bd 73e9 90bd 5b15 b3bd
000000d0: 8936 ba3d 384a 23bb 3048 543e 3b7f f0ba
000000e0: e8be 5fbc e7cb 1fbe b97d 7cbd af50 83bd
000000f0: c6e8 47bc acb2 88bd d8f3 2b3d 6433 e43b
00000100: 75fb ebbd 7a25 833d f85f 273d e639 eb3d
00000110: dceb 223c 619b b8bd 11b6 af3d 7b09 85bd
00000120: e16a aa3d 6983 9cbd fc92 133e 2a06 87bc
00000130: 3168 c53b a2c1 0e3c 6242 3cbb 3905 123e
00000140: 4f83 bd3d 0c0a d6bd d041 a6bc 1433 b4bc
00000150: de92 8dbc 9af5 96be 6e34 b83c 82d8 243e
00000160: a7ae ae3d d598 80bd 4067 b23d 5265 2e3e
00000170: 96a1 74bd 00f0 35be a693 b9bd 058a 29bd
00000180: e62d 73bd 6649 c53d 2b95 bcbd 429c 0a3e
00000190: 1609 6d3d 138d 3abd 995f 7f3e 7ae0 ef3d
000001a0: 5cec 9ebd 8a10 59be b465 403e 98ec 3cbd
000001b0: bb6b 613e eb86 0bbe e8c1 8d3e aef0 3e3d
000001c0: 82fe e538 461e 8ebc 1cc1 5b3e e18e ac3c
000001d0: af1e 793e 15c7 91be 49cc 0dbd 9100 143e
000001e0: 460f de3d ed3a 383d 6463 34be 6930 423d
000001f0: e37b e4bc 2fce 0fbd b0f2 3a3d 3406 d7bc
00000200: 33b0 8bbe b7a2 7ebd 4e8b 47bb 7633 74be
00000210: be3a 82be e8e5 36bd 18d5 203e 0a7c 123e
00000220: 6f12 97bd 3166 08be 280b 033e 4a34 be3d
00000230: 0c76 32bc 4f68 03be 4ce3 153d 3760 2cbd
00000240: 100b b03d d290 ac3d 656b 343e bb40 18bd
00000250: 5977 babe dd10 a13c 7239 1d3e 197c 0fbd
00000260: 21a6 a0bd 50fd 25bd d5bb c43d 37b3 30be
00000270: 5aaa 7f3e 9695 ba3a 547c 6bbc a22d b0bd
00000280: 6c7f 96bc b236 6abe 3f98 d53d c7aa b7bd
00000290: ba55 a4bd b1ae 623c b6cd 21be 16da 583e
000002a0: 4395 b13c 6ef5 d83d 7913 443d 09b5 4abe
000002b0: 6388 58bc f9f5 34be 5b91 4c3d 14b5 093c
000002c0: 9c91 1e3c c6af f93d d00b a43d 35bb 14bd
000002d0: a5e4 c9bd d200 983d 7ce0 103e b6b4 36bc
000002e0: 6479 f9bd dce6 30bd e0f0 04bd 6d60 8cbe
000002f0: f346 733d 00bb 473e d4cd fc3c 26c9 793d
00000300: eb25 9bbd e77b 093e d31b 0cbd a4f4 2cbe
00000310: f585 0bbe 9102 763c 8d88 02bc f3ee 503d
00000320: 90ea 76bd 7d38 0d3e dcdc abbb 2c95 123e
00000330: cd46 a0bd 11cd 4ebd 2458 a4bd 6424 733c
00000340: 2fa5 07bd c44b 8c3d e68b f8bb f2eb 8abd
00000350: b37f 5fbd 99ec ba3c e3ea 5bbd 3910 d93c
00000360: 74f3 7ebd 4e8b dcbc 5cf9 62bd a639 90bd
00000370: 052a 8bbd 2f30 5bbd bbf5 ddbc cfb7 15bd
00000380: c921 1e3d ce37 b33b 7893 0d3c 42d6 93bd
00000390: ba8d ffbc 82a7 c43c 605e 643d 5c56 bebd
000003a0: df75 a23d 3db9 373d 765a 93bd 0d72 9a3d
000003b0: 3556 903c 0297 773c 811b 5bbd da04 a8bc
000003c0: 6375 09bc b5f9 813c ef87 3ebd 0b0a 9ebd
000003d0: f54e 9cbd e0d1 833d f53b e439 cddf 6cbc
000003e0: 32f7 9c3d 2014 553d 4c05 8ebd 669a c03d
000003f0: d058 f939 cb69 893d ca78 c43d 651e cdbc
0.20778134 0.08080372 -0.11530805 -0.086057745 0.2513905 -0.23286903 0.0740574 -0.131835
0.22579141 0.11499153 0.044791933 -0.05281715 0.10483052 0.1247555 0.23709494 -0.3177876
-0.1188667 0.13632074 0.16126864 0.07530629 -0.08465623 0.17542413 -0.08223175 -0.0672271
-0.05929964 -0.011337508 -0.26667383 -0.052864794 0.11165885 -0.29227635 -0.30427662 -0.15792267
0.19351135 0.12148799 -0.029545004 0.012043418 0.23055108 0.04528167 -0.033146128 -0.07847273
-0.027600149 0.008281369 -0.04105288 -0.020770596 0.15181378 -0.19351551 -0.36494076 -0.019615809
0.009299299 -0.0704155 -0.07075777 -0.087443076 0.09092433 -0.0024916064 0.20730662 -0.0018348465
-0.013656355 -0.15605126 -0.061643336 -0.064118735 -0.012201494 -0.06674704 0.041980594 0.006964134
-0.11522571 0.064036325 0.040863007 0.114856526 0.009943929 -0.09014011 0.08579648 -0.06495949
0.08321167 -0.07642252 0.14411539 -0.016482431 0.0060243835 0.008713158 -0.002872609 0.14259805
0.09253561 -0.10451135 -0.020295054 -0.021997012 -0.017281946 -0.29484254 0.022485938 0.16098216
0.08529406 -0.062791504 0.087110996 0.17030838 -0.059724413 -0.17767334 -0.09061365 -0.04139139
-0.059369944 0.0963314 -0.09208139 0.1353617 0.057869993 -0.045544695 0.24938811 0.117127374
-0.07759926 -0.21197715 0.18788797 -0.04612407 0.22013752 -0.13625686 0.27687 0.04661625
0.00010966977 -0.01734842 0.21460384 0.021064224 0.24328111 -0.284722 -0.03461865 0.14453341
0.10842757 0.04497807 -0.1761604 0.04740945 -0.027891105 -0.03510874 0.0456416 -0.026248075
-0.27282867 -0.062166896 -0.0030448022 -0.23847756 -0.25435442 -0.04465285 0.15706289 0.1430513
-0.07376563 -0.13320233 0.12797225 0.09287317 -0.010892402 -0.1283276 0.03659372 -0.042083945
0.0859586 0.0842606 0.17619093 -0.037171107 -0.3641918 0.019661361 0.15353945 -0.035030458
-0.078441866 -0.04052478 0.096061386 -0.17255865 0.24967328 0.0014235254 -0.014372904 -0.08602454
-0.018371306 -0.22872427 0.10429429 -0.0896812 -0.080241635 0.013835595 -0.15801129 0.21176943
0.021677619 0.10593687 0.047870133 -0.19795622 -0.013216111 -0.17671956 0.04994331 0.008404989
0.009678271 0.12191729 0.080100656 -0.036311347 -0.098580636 0.074220315 0.14148134 -0.011151483
-0.121813565 -0.043188915 -0.03245628 -0.27417317 0.059393834 0.19504929 0.030859865 0.060982846
-0.07575592 0.13426171 -0.034206223 -0.16890198 -0.1362532 0.01501526 -0.007967127 0.05100913
-0.06028229 0.1379108 -0.0052448343 0.14314717 -0.07826004 -0.050488535 -0.08024624 0.014840219
-0.033116516 0.06850389 -0.0075850366 -0.06783284 -0.054565143 0.022817897 -0.053690802 0.026496993
-0.062243894 -0.026921894 -0.05541359 -0.070422456 -0.06795124 -0.05351275 -0.027094712 -0.036552247
0.03860644 0.005469299 0.008641116 -0.07218601 -0.03119551 0.024005655 0.055754066 -0.092938155
0.079326384 0.04485439 -0.071949884 0.07541285 0.017619232 0.015111687 -0.053493027 -0.020510126
-0.008389804 0.01586614 -0.046516355 -0.07716759 -0.07632247 0.06436515 0.0004353222 -0.014457655
0.07664336 0.052021146 -0.06934604 0.09404449 0.0004755915 0.067096315 0.09593351 -0.025038907

linear_relu_stack.0.bias f4 [102]
00000000: cb90 45be 9019 3ebe 364b 883d f5e5 c63d
00000010: d107 f03d 9f6f 6fbd 0e85 b5bd 0f92 66bc
00000020: ba30 7cbd 6241 453e bc30 51bd f078 8abd
00000030: e32e 49be 7aec 6cbd a0bc e03c 47b2 d0bd
00000040: e087 1abd 6562 6f3e 8a48 b83d 66cd 623e
00000050: 3ddc 80bb 223e 55be b950 6a3d 95ab c63d
00000060: 1ce2 6d3d fc7d 48bd f5f7 3dbd 03d4 fcbc
00000070: 85fc 02be 28ad cebc 6919 b13d d7a0 82be
00000080: a580 493e dd09 56bb 82da 87bd c1fb 55bb
00000090: 5d27 463d 1751 69bd 643f 0c3c eaea c6bd
000000a0: c427 0cbe 955a 9dbc 5a7c 97bd 33ba 87bd
000000b0: 6b57 8e3d e625 37be 53ea 25be 0db6 19bc
000000c0: 86a2 363c d938 a6bd 2c05 82bc 7fbe a4bd
000000d0: b380 42bd da05 9b3d cfda 15be c048 96bd
000000e0: 6d80 d0bd 2e63 b2bd c9ce 84bd 65f3 cc3d
000000f0: a6e3 baba e8ef 983d d9da eabb c314 623b
00000100: 7f80 9bbd aa5e c83d c1de 4dbd d140 ef3c
00000110: 6038 eb3c 1b34 14bd 87b6 183c 4426 e43d
00000120: d807 5abd 2af3 0fbe da00 b3bc 4653 b53d
00000130: cd1e 863c 2fa2 cd3b 2c39 e6bc 0eb0 063c
00000140: eb78 3cbe d4ed 063e 554d 41bb b030 83bd
00000150: a228 c7bd 0758 8fbc cacc e4bc dc2b 953e
00000160: f39b 1bbe 6e50 91bb e533 16be a324 67bd
00000170: 96d1 443c bff6 54bd 9ba1 12bc 570a 663c
00000180: 0572 c7bd ff92 1ebd e2f2 1dbd 7a5b 42bd
00000190: 63db 693e 53aa 96bd
-0.19293515 -0.18564439 0.0665497 0.097118296 0.11720241 -0.05845606 -0.08863269 -0.014072909
-0.061569907 0.19263223 -0.051071867 -0.06761348 -0.19646792 -0.05784271 0.027433693 -0.10190254
-0.037727237 0.23377378 0.08998211 0.22148666 -0.0039325044 -0.20824483 0.05720589 0.097006954
0.058076963 -0.048948273 -0.04637905 -0.030862814 -0.12791641 -0.025229052 0.08647425 -0.25513336
0.1967798 -0.0032659688 -0.06633474 -0.0032651278 0.048377384 -0.0569621 0.008560035 -0.09712775
-0.13687044 -0.019208232 -0.07396765 -0.066273116 0.069502674 -0.17885551 -0.16202669 -0.009381783
0.011147147 -0.081163116 -0.015871607 -0.08044147 -0.04748602 0.075694755 -0.1463425 -0.07338095
-0.10180745 -0.08710323 -0.06484754 0.10007361 -0.0014258518 0.074676335 -0.007167202 0.0034497238
-0.07592868 0.09783681 -0.050261263 0.029205712 0.028713405 -0.036182504 0.009320862 0.11140111
-0.053230137 -0.14057603 -0.021850992 0.08853774 0.016372109 0.0062754373 -0.028103434 0.008220686
-0.18405502 0.13176662 -0.0029495556 -0.06405771 -0.09724547 -0.01749803 -0.027929682 0.29135025
-0.15196209 -0.004434637 -0.14668234 -0.056431424 0.01201286 -0.051993128 -0.008949663 0.014040551
-0.097385444 -0.038714405 -0.03856171 -0.04745052 0.22837596 -0.073567055

linear_relu_stack.2.weight f4 [102, 102]
00000000: 87e5 623d 89a7 353d 02ab 1e3c 71a9 8b3d
00000010: aab1 bc3d c8c5 7b3c 63b8 363d 58c8 8a3d
00000020: d1d3 ad3d 2585 c33c 65d0 9d3d 2702 16bb
00000030: fa59 e7bc c7f9 c73d ae24 593d 0b8c b63c
00000040: c089 82bd 556b 91bd 505a 953d 50f2 9cbd
00000050: 3b13 5f3d c984 6fbd f229 8d3d dc2f b33c
00000060: 1d01 38bd 84a7 a5bb cc43 b83d 1040 38bd
00000070: 7260 323d 9528 8b3d f6b5 d23c 49f9 babd
00000080: 9cea 293d 3d60 cabd 6c4f a7bc 570a 1e3d
00000090: afcd 193d 7e6e 18bd 2a76 99bd f3e4 d63c
000000a0: 72e9 bb3d ce59 7a3d 422b a0bd 0a3e 743d
000000b0: ad0a ae3c b3a9 9ebc f622 63bc 7ff4 63bc
000000c0: 8019 a5bd ab6c c03d f889 7a3d ddba 5d3d
000000d0: 4a15 33bb e20c b83c 1c91 cd3d 4fae af3c
000000e0: 3df1 8fbd 45f7 71bd 28d6 213c 8e94 813d
000000f0: a012 6bbd bbde 5bbd b496 0dbd d054 4b3d
00000100: 26d4 a5bc 0353 c53d 5f7f b9bb 57b7 673c
00000110: 926c bcbd 9ac6 303d 3d1d a03d 7446 ff3c
00000120: 6310 473c ce51 a8bd dc5f 45bc 819a 44bd
00000130: cc64 4dbd ffc0 633d 515c 69bd 6e81 7a3d
00000140: 3fa6 673d 4b27 20bd dbc7 993d 7bd2 f93b
00000150: 3dd5 c8bd 2af6 9a3d 0225 2bbd 2d12 34bd
00000160: e587 b13b 7738 a0bc 658d 51bc bf38 f6bc
00000170: b735 73bc 2ff7 5f3c a508 28bd 2628 273c
00000180: 1a0f a9bd 0771 20bd 5eb2 65bc 38d7 2abd
00000190: 257b 173d 26db 8e3d 53c2 c0bd 974f 95bc
000001a0: e747 a3bd f170 ddbc f53b f7bc 7fd7 60bd
000001b0: 83eb 403d e528 9b3d ebd4 723d c295 c03d
000001c0: 217e 07bd 4160 0c3d 27a1 453b 97e9 8bbd
000001d0: 4788 883d 6ca8 14be 70ec c53d 4074 d53d
000001e0: 6ae4 09bd b381 1d3e 3ecc f33d 9a25 0bbe
000001f0: fa7e df3d ac98 993c 86bf 003d 2f3e 71bc
00000200: b6cb a9bb 3f36 7c3d a332 01be cca6 abbc
00000210: db0b afbd 5f29 273c 07df 99bc 6c62 b2bd
00000220: 4dd8 7e3d b2b9 4bbc efb0 d03c 8399 243a
00000230: ec27 5f3d 4794 bbbd a5c9 95bd cd27 72bd
00000240: 60fa aabc 436c 04bc ff07 2a3d 2c03 8abd
00000250: 912d bdbd f5d3 cb3c 9c74 94bd 3283 a43d
00000260: 74db 113c 1b35 83bd 64c3 e13c 44b0 953d
00000270: 5c3e c2bd a377 c33d 5199 753d 7c30 b8bd
00000280: 08f8 323d bce4 e13d 2dc5 8abd 0869 b23b
00000290: f162 9fbd 12e8 22bd 0be1 9bbd 7683 af3c
000002a0: 576e 94bd d2b1 17bd 2bc4 af3d 82ce 0a3d
000002b0: 267f 7c3d 3a0c 473e ebbf 4ebc ec0e 833c
000002c0: c865 0fbb 5066 a4bd 5780 0c3e a901 c53d
000002d0: 25f2 103d ed89 c43d a4c8 f3ba f5e7 273e
000002e0: c805 c4bc 9dde f7bd e6a1 90bd 3f28 72bc
000002f0: 89b4 3dbc a073 f53d a7b6 eabd 7c7b a43d
00000300: 3dfa 633d 053d c03b fb72 803d 6135 ba3d
00000310: 3708 913c 7811 a5bd 5db8 b23d ff45 393d
00000320: 24fc 493c c81b 7e3c 9e9a a33d 3a5a 0cbe
00000330: 86be 06bc 8957 d53d fbda 3b3d 4898 ebbc
00000340: e9d8 e6bd ade7 023d 3880 19bd b0ca 9abd
00000350: 7988 563d 551f c33c 1849 153d a048 073d
00000360: 4ebd 9c3d 87f8 99bd 5223 91bd 7dd6 823d
00000370: 6845 203c a257 08be 7641 723d 1034 a6bd
00000380: 92f8 0fbd c7bb 733d 163f 8bbd 8269 b1bd
00000390: 89ed 9c3d a5c1 b33d 007e 0fbd 1712 78bd
000003a0: ffb8 31bc 19ec 933d 4c49 b33d 6da8 1a3e
000003b0: c246 863d 79f8 99bd 05e2 b63d b5a9 723d
000003c0: 36b2 8f3d bee3 8dbd 898f 893c 07e6 87bc
000003d0: b530 4ebc 3d56 703b b68a 9f3c 24f0 693d
000003e0: 51e9 4bbc 5ea6 b9bb 52d1 dc3d 256f 253c
000003f0: 3fba 213c 1798 26bd 2aa9 9539 c656 44bd
0.055394676 0.044349227 0.009684326 0.06819428 0.09213574 0.015366979 0.04460944 0.06776494
0.084876664 0.0238672 0.07705764 -0.0022889466 -0.028241146 0.09764438 0.053013496 0.022283575
-0.0637393 -0.0710055 0.07292616 -0.07663405 0.0544617 -0.058476243 0.06892766 0.021873407
-0.044922937 -0.00505537 0.08997306 -0.04498297 0.04354901 0.0679485 0.025721531 -0.091295786
0.041483507 -0.09881637 -0.020423613 0.03858408 0.03754967 -0.03721475 -0.07493241 0.026232218
0.091753855 0.0611208 -0.07820751 0.059629478 0.021245325 -0.019368028 -0.013863316 -0.013913273
-0.08061504 0.09395727 0.061166734 0.054133285 -0.0027325922 0.02246708 0.10037443 0.021445422
-0.070284344 -0.059073705 0.009877719 0.06327163 -0.05739081 -0.05367921 -0.03456755 0.04964143
-0.020242762 0.09634974 -0.005660936 0.014142833 -0.09200396 0.04315815 0.07818077 0.031161524
0.012149903 -0.08218728 -0.01204678 -0.04799891 -0.050144956 0.055603977 -0.056972805 0.06115859
0.05655503 -0.039099973 0.075088225 0.007623968 -0.09806297 0.07566483 -0.04178334 -0.043962646
0.005417811 -0.019558175 -0.012790059 -0.030056356 -0.01484435 0.013669773 -0.04102387 0.010202443
-0.082548335 -0.03917029 -0.014019577 -0.041709155 0.036982674 0.06975393 -0.094120644 -0.018226428
-0.07972699 -0.027031394 -0.030179957 -0.054893013 0.0470996 0.075761594 0.059285086 0.09403564
-0.03307927 0.034271482 0.0030155869 -0.06831663 0.06666618 -0.14517373 0.096642375 0.104225636
-0.0336651 0.15381508 0.119041905 -0.13588563 0.10912891 0.018749557 0.03143265 -0.014724298
-0.005181755 0.06157517 -0.12616973 -0.020953558 -0.08547183 0.010202735 -0.018783106 -0.08710179
0.062218 -0.01243441 0.025474994 0.00062789785 0.05448143 -0.09159141 -0.07313851 -0.05911999
-0.020871341 -0.008082452 0.041511532 -0.06738886 -0.09237207 0.024881342 -0.07248804 0.08032836
0.008902419 -0.064066134 0.02755899 0.073090106 -0.0948455 0.09544303 0.059960667 -0.08993623
0.043693572 0.11029956 -0.067758895 0.0054446496 -0.077825435 -0.0397721 -0.07611283 0.02142499
-0.07247608 -0.037034817 0.08582338 0.033888347 0.061644696 0.19438258 -0.012618999 0.015998326
-0.0021880735 -0.08027327 0.13720833 0.09619457 0.035387177 0.0959662 -0.0018599224 0.16397078
-0.023928538 -0.12103007 -0.0706213 -0.014780103 -0.0115786875 0.11984944 -0.114606194 0.08031365
0.055658568 0.005866649 0.06271931 0.090922125 0.017704112 -0.080599725 0.08726571 0.04523277
0.012328181 0.015509553 0.07988475 -0.13706294 -0.008224135 0.10417087 0.045863133 -0.028759137
-0.11271841 0.031959224 -0.037475795 -0.07558191 0.052376244 0.023818651 0.03644666 0.033028245
0.076532945 -0.07518106 -0.07086815 0.06388567 0.009782173 -0.1331468 0.05914446 -0.08115399
-0.035149164 0.05950525 -0.06799142 -0.08662702 0.07662494 0.08777169 -0.035032272 -0.060564127
-0.010847329 0.072227664 0.08754215 0.15103312 0.06556465 -0.075180955 0.089298286 0.059243876
0.07016413 -0.06928204 0.016792076 -0.016589178 -0.012584855 0.0036672496 0.019475322 0.05711378
-0.012445764 -0.0056655845 0.10782112 0.0100973 0.009871065 -0.040672388 0.00028545532 -0.047934316

linear_relu_stack.2.bias f4 [102]
00000000: 413a 4a3c fe17 5c3e b0c1 23bd 4fef 8e3d
00000010: 3f75 363d 8248 5cbd 9cf4 6fbc 1d51 f5bb
00000020: 1947 63bd 07b3 703d ab2a 89bd fdf3 a0bc
00000030: 09a3 42bd c2a3 a23d 8826 fc3d 0da2 583c
00000040: 1c9d 4cbd fb79 71bd bc80 b7bd 44fb c9bc
00000050: 0256 19bd 1652 85bc 9b0a 243d 81c3 133d
00000060: 49ef 2d3d 4b03 193c 01c7 953c 6ea3 b3bc
00000070: 65b9 af3d 85bc 013d 669f 64bb 26c3 893b
00000080: 46b2 103d e09c 1c3d dd82 0c3d 4637 c6bc
00000090: 8fb5 c3bd 741f 1e3d 5fe8 873e 511b 47bc
000000a0: 38fe a83c c22f 83bd 4ff2 cebc 2974 84bd
000000b0: f1f1 483d 8fa3 443d d260 cb3d d93d d1bc
000000c0: 0a06 f4bc 8dcb 013d 8865 8f3d 2a35 4a3b
000000d0: ca16 a13d 3172 95bb c521 76bd 98ba 63bd
000000e0: 04d6 4a3d c9f9 19bd 366c a13c c6b8 9cbd
000000f0: 2170 d4bd ba77 4fbc a1fa 863d 5682 6dbb
00000100: 293c 0d3c dfaa 9b3e 5f74 86bd 4071 c93d
00000110: dc16 cc3d f611 813e cc55 743d 6a88 8d3e
00000120: d728 283c 01f0 b1bd b635 99bd 3b1b 753c
00000130: 45e2 3fbc 80ea 433e fc89 a33d 585d 73bd
00000140: 84b7 adbd 2870 8cbd 9731 8b3d 4af6 3f3e
00000150: 8984 f7bc 93d0 7ebd 27e2 a0bd 5fa4 943d
00000160: aab7 6a3d dc31 c53d df1b 903c 46ee de3c
00000170: b08e 2abc f04f 28bc 9554 b23c 2aa1 913d
00000180: 12d4 833d e504 463e a79a a13d 8249 733d
00000190: b479 3d3c 718a 1b3d
0.01234299 0.21493527 -0.039979637 0.06979238 0.04454541 -0.053780086 -0.014645722 -0.007486476
-0.055487726 0.058764484 -0.066975914 -0.019647593 -0.047518764 0.079413906 0.12312037 0.01322223
-0.04995452 -0.05895422 -0.08960101 -0.024655946 -0.03743554 -0.016274493 0.040049177 0.03607512
0.04246453 0.009339164 0.018283369 -0.021928515 0.08580283 0.031673927 -0.0034885048 0.0042041717
0.035326265 0.038235545 0.03430449 -0.024196278 -0.09556114 0.038604215 0.26544473 -0.012152509
0.020629033 -0.064055935 -0.025262026 -0.06467468 0.04905886 0.048007544 0.099305764 -0.025542187
-0.029788036 0.03168826 0.070017874 0.0030854442 0.07865675 -0.004560732 -0.0600908 -0.05559787
0.049520507 -0.03759173 0.01970492 -0.0765243 -0.103729494 -0.012662822 0.065907724 -0.0036241016
0.0086203 0.30403802 -0.06565165 0.09836054 0.099652976 0.25209016 0.059652135 0.27643138
0.010263643 -0.08688355 -0.07480948 0.0149601055 -0.011711662 0.19132423 0.07985303 -0.05941519
-0.084822685 -0.068573296 0.06796568 0.18746296 -0.030214565 -0.06221063 -0.07855635 0.07257914
0.057304062 0.096286505 0.017591415 0.027213227 -0.010409996 -0.010272965 0.021768847 0.07110818
0.064369336 0.19337805 0.07890826 0.059396274 0.011564661 0.037973825

linear_relu_stack.4.weight f4 [1, 102]
00000000: 2712 02bd dbd4 dcbe e342 7f3e deb1 f73d
00000010: 2adf 533e 605a 6e3c dfe4 683b 3cfd 703e
00000020: 6c3c 643d f617 f53c 81a9 86bd 5e06 ecbb
00000030: fdf5 cd3e df88 acbe 9064 76be 85e6 2b3e
00000040: 6734 35bd 323b 3e3e a3d4 72bc dbc1 433d
00000050: d58d 153e fd31 f73e d782 803d 73a5 9d3e
00000060: 185f 4a3e 34a5 97bd 01a2 9a3d 23fc 463e
00000070: 55ac 88bc 15fd c83e 3a76 463c 5e44 cd3c
00000080: f0aa 823e 5213 613e f6ab 863d 48dc 003d
00000090: 7469 1bbd 7f17 5f3e 99c9 2abf 987d debd
000000a0: a5bf 3e3d 7c25 8d3e ec3d 163d 6900 43bd
000000b0: b9d1 033f 975a 013f 76f4 b3bd 369c ec3c
000000c0: bd5d 31bd ec90 ecbd 15b2 90bb 624f abbd
000000d0: b848 113e 2707 8bbd 07e9 193c 2a9e 723e
000000e0: 075a 43be 7c93 babd 5a83 233f fa4c 90bd
000000f0: a708 223d 51e4 fe3e 048e 14bd 2a58 043d
00000100: aaa0 91bd f427 71bf d19c 073e f157 57be
00000110: 5c11 6f3e ffcc 58bf 65b0 fa3e 6ea6 2fbf
00000120: 1315 07bd bfc6 713c 76ed 1dbc bfad 8e3d
00000130: 2124 903e ec06 a2be 86dc a93e 1f79 a03c
00000140: 3006 803c 8501 833e c660 013f a73d f0be
00000150: 437e 08be 2d8f 88bd 6d4f df3d f3df 033f
00000160: 0563 44bd 3933 99be 1fcb b53d f450 ee3e
00000170: 359b 0d3d 79fe 8d3d d090 c2bb f8ce 0a3c
00000180: 325b cd3e de0c 0dbf 7aba 1cbd b9b7 b63d
00000190: 4fb5 233e a88d 49be
-0.031755593 -0.43131146 0.24927859 0.12094472 0.20690599 0.014547914 0.0035536808 0.23534101
0.055721685 0.029918652 -0.06575299 -0.0072029075 0.40226737 -0.33698174 -0.24061799 0.16787155
-0.044239428 0.18577269 -0.014821204 0.047792297 0.14604886 0.48280326 0.06274956 0.3079029
0.19762838 -0.07404557 0.07550431 0.1943212 -0.016683737 0.39255586 0.012113148 0.025057014
0.2552104 0.21980026 0.06575768 0.031460077 -0.037942365 0.21786307 -0.66713864 -0.10863799
0.046569485 0.2756766 0.036680147 -0.047607813 0.51491886 0.50528854 -0.087868616 0.02888308
-0.043302286 -0.11551079 -0.0044157603 -0.083647504 0.14187896 -0.067884736 0.009393937 0.23693147
-0.19077311 -0.09110162 0.638723 -0.07045932 0.039559033 0.49783567 -0.03626825 0.032310642
-0.07110722 -0.9420159 0.13243414 -0.2102964 0.23346466 -0.846878 0.48962703 -0.68613327
-0.032979082 0.014756857 -0.009639135 0.06966733 0.28152564 -0.31645906 0.3317606 0.019589005
0.01562795 0.25587097 0.5053829 -0.46922037 -0.13329415 -0.066679336 0.10903821 0.51513594
-0.047945995 -0.29921892 0.08876633 0.46546137 0.034571845 0.069333024 -0.005937673 0.008472197
0.4010864 -0.5509776 -0.038263775 0.08921761 0.15987132 -0.19682944
