Code/network_saves/save.pt (torch, 14999 bytes, 5 tensors)

linear_relu_stack.0.weight f4 [39, 39]
000000 3d 15 01 be 7a ca 93 bb 44 0a 87 3d 34 96 95 bd
       -0.12605758 -0.004510221 0.06593755 -0.073040396
000010 d7 c0 cf 3d 9f c2 ba ba 47 45 49 bd 86 22 38 3d
       0.10144203 -0.0014248675 -0.049138334 0.0449548
000020 b6 4e 43 3d d1 c6 a2 bd 19 29 bd 3d d2 ed 19 3e
       0.047682486 -0.079480775 0.092363544 0.15032127
000030 fa 3a 13 3e 26 b2 ef bc 90 ba 6a 3c 68 b5 fe 3d
       0.14377967 -0.029259752 0.0143267065 0.12436944
000040 f1 dd 66 bc d4 06 e5 bd 7d 34 08 3e fc 1c fe 3d
       -0.014091001 -0.11182943 0.13301273 0.12407872
000050 b7 b8 a3 bb 9e 75 0e bd ab b5 19 3e 3c f6 c3 3d
       -0.004996385 -0.034780137 0.15010707 0.0956845
000060 47 a2 f3 bc 44 d4 1e 3c e0 a6 e3 bd 9c 86 42 3d
       -0.029740466 0.009694163 -0.11115813 0.047491655
000070 a0 cb 80 bd c8 9f d2 3d 7e 68 d2 3d 8e 92 94 bc
       -0.062888384 0.10284382 0.102738366 -0.018136289
000080 3d 6f 42 bb fa 39 1e 3c 16 61 27 bb 4c c7 e7 bd
       -0.0029668354 0.009657377 -0.0025540045 -0.1131731
000090 52 70 85 3d 26 81 20 be b6 c0 8c bd e1 1a 19 be
       0.06515564 -0.15674266 -0.06872694 -0.1495166
0000a0 a6 e0 10 3d 4b c1 1c be d4 00 e2 3d ef da 09 be
       0.03537049 -0.1530811 0.11035314 -0.13462423
0000b0 9b 90 35 bd 29 2a dd bc 1b 82 a3 bd 0a 68 63 3d
       -0.04432736 -0.026997643 -0.079838 0.05551914
0000c0 1e 4c 68 bd dd 52 65 3d 17 cb d8 3d 07 d8 d8 3b
       -0.056713216 0.055987228 0.10585611 0.0066175493
0000d0 68 3a 19 3e 94 7b 01 3d 02 02 84 3b ae 2e 14 3d
       0.14963686 0.031611994 0.0040285597 0.03617733
0000e0 51 87 f6 bd eb 29 a3 3d 0f 15 95 3b 8d da 2c 3d
       -0.12037528 0.079669796 0.0045496295 0.042200614
0000f0 5d 9d 79 bd 50 67 0c 3e 11 2f 39 3d 31 b8 28 3c
       -0.06094109 0.13711286 0.0452109 0.010297821
000100 86 2f 0f bc b2 90 f6 3d 4f 4c bb bb 39 3b e4 bc
       -0.008739358 0.12039317 -0.005715884 -0.02786027
000110 64 44 8a bd 73 f1 53 3d 46 8c f6 bc 2f 1d 92 3d
       -0.06751326 0.051743936 -0.030096184 0.071344726
000120 e0 83 a6 3d dc ba 22 be 50 7e 21 3d 91 79 bb bd
       0.08130622 -0.15891594 0.0394271 -0.09154046
000130 4e 80 16 be 9e 09 79 bd 49 b6 48 bd 8d 2d d6 39
       -0.14697382 -0.060800187 -0.049001966 0.000408512
000140 0a c7 4d 3d 22 da 2f 3c ab c7 0d 3d f1 cf 91 bd
       0.050238647 0.010733159 0.034614246 -0.0711974
000150 4a 86 27 be 58 27 f3 3d 64 b4 0d 3e de 26 e1 3d
       -0.16359821 0.118727386 0.13838345 0.109937415
000160 e2 e6 f2 bc 36 c0 23 3d df d4 da 3d 1d 73 5d bd
       -0.02965111 0.03997823 0.10685133 -0.05406486
000170 f8 48 92 bd 9a 0c 30 3d 5e 6a 1f 3e 4d af db 3c
       -0.07142824 0.042980768 0.1556792 0.026816988
000180 ae 6b 17 be 12 f9 07 3e 85 28 e6 bd 90 4b bb 3c
       -0.1478717 0.13278607 -0.11238197 0.02286318
000190 12 75 c2 bd 6f a8 50 bd cd bc e3 bc 47 60 d1 bb
       -0.09494986 -0.05094188 -0.027799988 -0.006389651
0001a0 f9 c4 7a 3c f3 a0 ee 3d 2f 77 88 3c 99 76 cb 3d
       0.015305751 0.116517924 0.016658394 0.0993473
0001b0 a2 04 bb 3c 1d 2b 0a be a2 e0 cb bd d0 43 48 3d
       0.022829358 -0.13493009 -0.09954955 0.048892796
0001c0 fd f6 e8 bd 41 86 11 be 5a f9 c4 3d 68 58 ef bd
       -0.11375234 -0.1421137 0.096178725 -0.11686784
0001d0 39 57 25 3d a9 3b a2 bd 17 5a 04 3e ec 6b 20 be
       0.040366385 -0.079215355 0.12924992 -0.15666169
0001e0 35 39 10 be 04 51 29 bd 5d 98 a6 3d 1b fc fb 3d
       -0.14084323 -0.04133703 0.0813453 0.12303945
0001f0 1e ec 2d bd 9f 4c 0d 3c 39 4e 79 bd a0 cc 04 3e
       -0.042461507 0.008624225 -0.060865615 0.12968683
000200 9c 76 9e bd 47 57 1c 3e 0a 42 0e 3e 9a 44 f4 bd
       -0.07737467 0.15267669 0.1389238 -0.11927147
000210 d1 91 81 bd 6b 36 2a 3c 4a 26 7b 3d 6f a4 ba 39
       -0.063266404 0.010388951 0.061315812 0.00035599197
000220 6d 1d c6 3c 00 19 22 3e 24 1a f9 3d 40 0b 23 be
       0.024183953 0.15829849 0.12163189 -0.1592226
000230 31 43 a7 bd b1 ce 17 be 1c 80 1e be 16 7a 74 3c
       -0.081671126 -0.1482494 -0.15478557 0.014921686
000240 5c 36 c9 bd 72 b1 0a be 5f cf 1d 3e 2e 51 3a bd
       -0.09824821 -0.13544253 0.15411137 -0.045487575
000250 59 11 23 be 6e c0 35 3d cd a1 cb 3d fb 8f 81 bd
       -0.15924586 0.04437297 0.099429704 -0.0632629
000260 ac f9 96 bd ed 63 ab 3c 9f 3c 94 3c ce cb bc 3b
       -0.0737184 0.020921672 0.018095313 0.0057616
000270 1e 16 4d bd 5a 02 6f bd fd 5a a4 bc 92 1d be 3d
       -0.05006992 -0.058351852 -0.020062918 0.09282984
000280 c5 35 31 3c 17 d3 a4 3d ef 2a f8 bd b5 f9 a3 bd
       0.010816042 0.08048075 -0.12117564 -0.08006612
000290 28 1c 0a be 3f df 07 3e 87 51 c0 3d 5b 13 d9 bd
       -0.13487303 0.13268755 0.0939055 -0.10599395
0002a0 f2 7b a9 3d 44 d7 43 3d 7b c3 1f be 2d 3e 22 3e
       0.08275594 0.047812715 -0.15601914 0.1584403
0002b0 4b 36 8d bd 94 16 39 3d 84 42 0c 3e 5b b7 4c bd
       -0.06895121 0.045187548 0.13697249 -0.04997955
0002c0 53 a0 63 3d 9f 4a cf 3c b2 0e fd bd 39 ba 23 3e
       0.05557282 0.025304137 -0.123563185 0.15989007
0002d0 0f f0 9c 3d 77 db e1 bd 89 2c 00 be b7 37 7b bc
       0.07662975 -0.11028188 -0.12516989 -0.015333108
0002e0 73 8b 5a bd 33 70 21 3c 48 f5 ea 3c a3 dd 2f bd
       -0.053355645 0.009853411 0.028681412 -0.04293598
0002f0 48 ee a6 bc 1d 30 a8 38 eb 65 ef bc 56 55 21 3e
       -0.020377293 8.019826e-05 -0.029223403 0.1575521
000300 16 4f 06 3e 9e 15 f3 3d b0 fb c3 bd 40 9b c4 bd
       0.13116106 0.118693575 -0.0956949 -0.09599924
000310 57 a1 1a 3d f2 d5 17 3d e3 da 54 bc 49 b1 9f bd
       0.037751522 0.03706927 -0.01299164 -0.07797486
000320 0a bf 87 3d e4 68 0d 3d 77 78 74 bd ef ea 3e bd
       0.06628235 0.03452386 -0.059685197 -0.04661077
000330 28 10 fb bd 19 55 9a bc 1c 22 0d be 5b db e8 bd
       -0.12258941 -0.018839406 -0.13782543 -0.11369964
000340 5d 48 10 be 53 29 c1 3d e7 19 94 3d d2 49 0c 3d
       -0.14090104 0.0943171 0.07231503 0.034250088
000350 10 e8 85 3d 2c bc 5a bd 74 84 0d be 64 76 c8 3c
       0.06538403 -0.05340211 -0.13820058 0.024470516
000360 17 05 22 be cf 43 b8 bd 62 1f 03 3e dc e0 2c bc
       -0.15822254 -0.089973085 0.1280494 -0.0105516575
000370 fb 31 da 3d 2d 8c d0 bd fd 4d 2e bd 86 96 73 bd
       0.10654064 -0.101829864 -0.042554844 -0.059469722
000380 41 95 18 be 5f 0f aa bd a0 99 0c 3e c0 09 b9 3c
       -0.14900686 -0.08303713 0.13730478 0.022587657
000390 09 e7 12 bd 94 c9 13 3e ea db 22 be 46 bc c6 3d
       -0.035864864 0.14432365 -0.15904203 0.09703879
0003a0 4c 13 00 bd a7 21 89 3c ab 2d 0e 3d dc d8 17 be
       -0.031268403 0.01673968 0.03471152 -0.14828819
0003b0 bf 91 bb bd d5 91 91 bd d8 f5 74 3d 53 28 a9 3d
       -0.09158658 -0.071078934 0.059804767 0.08259644
0003c0 1e 2b 86 bd bc bf 84 bd 70 4f af 39 d4 9a c6 3d
       -0.06551193 -0.06481883 0.00033437787 0.096975
0003d0 1d 49 eb 3d b0 e8 7b bd e5 73 dc bd 55 30 e7 3d
       0.114885546 -0.061501205 -0.10764293 0.112885155
0003e0 33 fa 07 bd cc 18 28 3d d6 2d 21 be 7f 65 0e be
       -0.033197593 0.041039273 -0.15740141 -0.13905905
0003f0 06 98 31 bd a2 82 9e bd 55 8d c1 3d 6b 58 91 bc
       -0.04335787 -0.0773976 0.09450785 -0.017742356

linear_relu_stack.0.bias f4 [39]
000000 b9 cc 2d be 84 9a 14 3e b7 44 10 bd 7d 74 4e bb
       -0.16972627 0.14512068 -0.03522178 -0.0031502538
000010 76 90 ff bd 1c 78 e9 bd b8 22 3b 3d 2d c5 07 bd
       -0.124787256 -0.11399862 0.045687407 -0.033147026
000020 43 74 ff bb 09 7a 69 3e 39 56 21 3d a6 ea 5a 3c
       -0.007795842 0.22800459 0.03938887 0.013361609
000030 d8 89 f3 bd d7 2a 14 3e 2b bf 8c 3d a1 26 0c 3e
       -0.11891526 0.14469467 0.068724 0.13686611
000040 ca fd e3 3d 9c 74 c2 bd 24 0a b3 bd a9 a7 f9 3d
       0.11132391 -0.09494898 -0.087421685 0.12190182
000050 f4 bb 10 3e ea 05 63 bd cf 78 58 3d 8a 0d 05 bd
       0.14134198 -0.055425562 0.052849587 -0.032483615
000060 61 82 11 3e 5e 01 bd bd e1 4c 0c be d4 a6 97 3d
       0.14209892 -0.092287764 -0.13701202 0.07404867
000070 16 bd 04 3e 06 5d b5 3d e5 55 d7 bd 9c bb f2 3d
       0.12962756 0.088556334 -0.1051443 0.1185219
000080 69 a9 a8 3d 22 dc 0b be 83 79 b1 3c 80 f2 a2 bd
       0.082354374 -0.13658193 0.021664387 -0.079564095
000090 72 52 f3 3c e4 49 a2 bd c1 9d 22 bd
       0.029702399 -0.0792425 -0.039701227

linear_relu_stack.2.weight f4 [39, 39]
000000 15 31 c0 bd 0b 49 5f 3c 3f e9 23 be d0 23 9b bd
       -0.09384362 0.013628255 -0.16006945 -0.0757519
000010 94 eb 14 bd c4 ed a1 3d 34 88 65 3d 6d f5 21 be
       -0.036357477 0.07906678 0.056038097 -0.15816279
000020 11 ac a0 3d 0d a2 a9 bd cd 0a 2b 3d 2a 2a 9e bc
       0.07845319 -0.08282862 0.041758347 -0.019307215
000030 0f 3f e8 bc 51 b2 fa bd d4 f1 a1 bc 94 10 ca bd
       -0.028350381 -0.122410424 -0.019768633 -0.09866443
000040 fe f5 0c be 95 86 ed 3c c0 1d 7c 3d 03 ec ce bd
       -0.13765714 0.028994838 0.06155181 -0.101036094
000050 d0 68 1d 3d 08 77 45 bb df c3 f9 3b 21 c8 cf 3c
       0.038430035 -0.0030130763 0.0076222266 0.025363984
000060 4e ef 82 bd 63 4e 67 bd 00 cc cd bd c4 eb 0f be
       -0.063933 -0.05647124 -0.100486755 -0.14054781
000070 c0 a4 09 3e 83 92 b8 bd 0b 70 f1 bd 38 6d 2c bb
       0.13441753 -0.0901232 -0.117889486 -0.0026310217
000080 bd 9f 0b be 78 57 19 be fb f6 6b bd 97 25 c9 3d
       -0.13635154 -0.14974773 -0.057608586 0.09821623
000090 d4 49 0a be 7f f6 c5 bd b5 c1 e4 3c 91 a7 30 3d
       -0.13504726 -0.09666156 0.027924398 0.043128554
0000a0 8e 67 b0 bb 52 15 8c bd 97 f4 2d 3c 96 38 02 be
       -0.0053834384 -0.06840004 0.010617397 -0.12716898
0000b0 29 04 09 3e 05 cc d1 3c cb 3c 14 be dc 0b 4b 3e
       0.13380493 0.02560998 -0.14476316 0.19828743
0000c0 92 c6 72 3e 6d 59 5d 3c ec fd aa bd 90 d9 91 bc
       0.23708561 0.01351009 -0.08349213 -0.017803937
0000d0 35 2c f7 3c 4d df 92 bd 0b 7a b9 3d 8a 1d 37 3e
       0.030172447 -0.071714975 0.09056481 0.17882362
0000e0 41 35 10 be 1c 4a a6 3c 50 eb a1 bd 31 6d 84 bc
       -0.14082815 0.02029901 -0.079062104 -0.016165348
0000f0 58 4f a4 bd b1 4f 95 bd 6b e3 ed bd e4 6b df 3d
       -0.08022946 -0.072905906 -0.11615642 0.109092504
000100 8e 8a b2 bd 7c 61 03 be 95 c8 80 bd 47 f0 98 bc
       -0.087178335 -0.12830156 -0.06288258 -0.01866926
000110 16 13 3a bd ca 9b 16 be ca 3d 7d 3e 05 64 bc bd
       -0.045428358 -0.14707866 0.24730602 -0.09198765
000120 69 a1 da bd 3b d5 26 3e e9 07 ce 3d 59 31 40 3e
       -0.10675318 0.16292278 0.100601025 0.18768825
000130 ec 6c 1d 3e d1 e3 82 bd 11 1f 1e 3e 36 a9 00 3d
       0.15373582 -0.06391109 0.15441538 0.031411372
000140 18 bb 1f bd 2c 2c 8c bd f7 0d 03 be 24 24 bb 3d
       -0.038996786 -0.068443626 -0.12798296 0.09137753
000150 4c 52 ab 3c 42 8f ce bd 5d f7 0a 3e e5 00 ef 3d
       0.020913266 -0.10085918 0.13570924 0.116700925
000160 df a3 02 be 2f cc 0b 3e 75 9c a1 bd 8b a6 b0 3d
       -0.12757824 0.13652109 -0.0789117 0.086255156
000170 16 31 65 bc 4f 2e 6c bd b2 b7 9f bd f2 ab 5b 3d
       -0.013988754 -0.05766135 -0.07798709 0.053630777
000180 a4 48 8c 3d d3 b7 44 3d e4 56 f1 3d 77 fd d2 3d
       0.068497926 0.04802687 0.11784151 0.10302251
000190 3a e7 91 3d ee e5 89 bd 69 5d f2 3c b3 0b 42 3d
       0.07124181 -0.06733309 0.029585557 0.04737444
0001a0 51 7d 9f 3b 25 7a 97 bc 2a 99 91 bc 12 d4 27 3e
       0.004867234 -0.01849086 -0.01777323 0.16389492
0001b0 bc 45 0d be b9 24 90 3c eb 35 81 3d ce e7 90 bd
       -0.13796133 0.017595636 0.06309112 -0.07075463
0001c0 69 4f 86 3c 86 27 2a bd 3d e5 02 3d 1e 35 c1 bd
       0.016395288 -0.0415416 0.0319569 -0.094339594
0001d0 2d e0 93 bd 0e 47 9a 3d bf 47 1f be 8d 16 03 3e
       -0.072204925 0.07533084 -0.15554713 0.12801571
0001e0 80 c4 ce bd 0f fa 0e 3e 6a 63 dd bd f8 1f 6b 3d
       -0.10096073 0.13962577 -0.10809977 0.057403535
0001f0 8b a0 03 be 19 ae 0e 3e 36 b2 f3 3d bf 19 9d bd
       -0.12854211 0.139336 0.118992254 -0.07670926
000200 e1 7d 15 bd 52 dd d5 3d f6 dd 04 be db f2 ae 3d
       -0.036497 0.10442604 -0.12975296 0.08542415
000210 b4 31 a0 bd 4e 70 a4 ba 69 40 83 bc 5a 8b c5 bc
       -0.0782198 -0.0012545676 -0.016021924 -0.0241143
000220 b6 23 61 bd dd 90 11 3e 2c 4b 03 be aa 2b 3f bd
       -0.054965697 0.14215417 -0.12821645 -0.0466725
000230 fe d6 b1 bb bc c8 67 bd 6e a4 8d 3c 6b 0e 74 bd
       -0.0054272404 -0.05658792 0.01729032 -0.059584063
000240 76 e3 46 bd 04 d8 08 be e9 f7 0e 3e 19 09 a4 bd
       -0.048556767 -0.13363653 0.13961758 -0.08009548
000250 81 21 37 bd d1 a0 ab 3d d5 e9 19 be 7b 74 fe 3a
       -0.044709686 0.08380283 -0.15030606 0.0019413376
000260 2a a1 bc bd 91 ad 08 be 1e 13 b6 bc e1 0c d9 bd
       -0.09210427 -0.1334746 -0.022225913 -0.105981596
000270 4f 7b 60 3d 04 90 9a bc f8 a6 f6 bd b9 af a9 bd
       0.054805096 -0.0188675 -0.120435655 -0.082854696
000280 74 48 1c bd 6d ad a6 3c 25 40 c2 3d 72 51 62 3d
       -0.038155034 0.020346368 0.09484891 0.055253454
000290 c8 2e b4 bd b3 b3 af bd 2b 85 09 3e 15 75 d8 ba
       -0.08797985 -0.08579197 0.13429706 -0.0016514385
0002a0 22 e2 77 bd d3 d6 d9 3d 37 1f 61 3d e6 01 b8 bd
       -0.06051839 0.106366776 0.05496141 -0.08984737
0002b0 e8 15 b0 bd a0 c3 09 bd cf 21 07 be 8d 1c b5 bd
       -0.08597928 -0.03363383 -0.1319649 -0.08843336
0002c0 cc 71 32 3c 69 93 1d 3d df 9c 20 be 9c 15 92 bd
       0.010891389 0.03847066 -0.15684842 -0.07133028
0002d0 f6 7e ee 3d 85 1c ce bd fd 48 da 3d 78 27 a0 3d
       0.116453096 -0.100640334 0.10658453 0.07820028
0002e0 05 44 ac bd 17 ce a1 bd 02 8a b2 bd e7 40 b6 3d
       -0.08411411 -0.07900637 -0.08717729 0.08899098
0002f0 46 64 34 ba 21 73 fd 3d f2 0b 22 bb 51 5e b6 bd
       -0.0006881397 0.12375475 -0.0024726358 -0.08904708
000300 89 06 22 be e5 d0 81 3d be 95 0c 3e 8b c7 20 be
       -0.15822805 0.063386716 0.13728997 -0.1570112
000310 2a 45 4b bc 75 3f 91 3d 12 9a e5 3d de 03 84 bd
       -0.012406627 0.070921816 0.11211027 -0.0644605
000320 f6 6d 0e 3d 8d 46 1b 3e 3a d5 fc 3d 95 56 82 bd
       0.034772836 0.15163632 0.12345357 -0.063641705
000330 7e 24 00 b9 20 db bd bd d8 6d ac bd ec 66 ea 3d
       -0.00012220626 -0.092703104 -0.084193885 0.11445412
000340 e8 05 29 bd 95 7b a1 bd 17 aa 1a 3e 2e 43 8d bd
       -0.0412654 -0.078848995 0.15103947 -0.06897579
000350 6a cc 9e bd d7 e3 81 3d 90 ac 80 3d 88 80 d3 3c
       -0.07753833 0.06342285 0.06282914 0.025818124
000360 63 23 b4 bd 33 d1 12 bd 5c 49 b1 3c 4e 48 14 be
       -0.08795812 -0.03584404 0.021641426 -0.14480707
000370 9b 1a a9 3c 40 15 ed 3c aa 82 b9 bd e7 02 1e be
       0.02064257 0.028940797 -0.09058125 -0.15430795
000380 5a 98 26 3d 06 08 f2 3c 0d ce 85 3d 0e 8c 6b bd
       0.040672638 0.029544841 0.06533442 -0.057506613
000390 3b 0d 02 be 44 ba 02 be cb 8b 84 b9 2c 8f 00 be
       -0.1270036 -0.12766367 -0.00025281156 -0.12554616
0003a0 68 0c 9d 3d 6e 76 c6 3d 23 9d 04 be 70 91 1b be
       0.07668382 0.096905574 -0.12950568 -0.15192199
0003b0 35 d5 08 be c3 06 17 be 1f 56 23 3e ae 17 6e bd
       -0.13362582 -0.14748673 0.15950821 -0.05812805
0003c0 f4 b5 f2 3d fd 74 b6 bd 0f 0c a6 bd 0e fd f9 3d
       0.11851111 -0.089090325 -0.08107769 0.122064695
0003d0 03 55 d2 bd 51 ee 7b bd 6c 18 a1 bd 67 0f f2 3d
       -0.10270121 -0.061506573 -0.07865986 0.11819344
0003e0 19 79 10 be 2a e5 0d 3e bd 99 22 bc 9a 15 ca 3d
       -0.14108695 0.1385695 -0.009924349 0.098674014
0003f0 c1 c0 b5 bb fb 5e 1d 3d 7c 3c 0d be 02 9e 10 3e
       -0.0055466597 0.03842066 -0.13792604 0.14122775

linear_relu_stack.2.bias f4 [39]
000000 80 02 ac 3d 27 10 8f 3e 85 be d8 3d bf 72 20 bc
       0.08398914 0.2794201 0.10583214 -0.009792983
000010 4d 55 be 3d 8c bb b8 bd 2c f1 e1 bd d7 7d 1f be
       0.092936136 -0.09020147 -0.11032328 -0.15575348
000020 08 5d 1e 3e 94 50 63 3d b0 bb c8 3d 2f 6b f2 bd
       0.15465176 0.055496767 0.098014235 -0.1183685
000030 4c b3 05 3e 98 21 74 bd 54 99 bc bd a9 e6 0c 3c
       0.13056678 -0.05960235 -0.092089325 0.008599916
000040 97 c9 90 bd a3 ba dd bd f1 b2 09 be 18 dd c5 3d
       -0.070697 -0.10826614 -0.13447167 0.09661311
000050 f7 e6 77 3d 09 61 0c be 97 9a 6b 3e 3b 22 8a bd
       0.060523 -0.13708891 0.2300819 -0.0674481
000060 3a ae ab 3d aa 1a cc 3d 0b 19 9c 3e 92 8d 9c 3b
       0.083828405 0.09966023 0.30487856 0.0047776187
000070 be a4 bf bc d5 0c b9 bd ff e8 0e 3d cb 7b 1a 3e
       -0.023393985 -0.09035651 0.03489017 0.15086286
000080 29 cc 54 3d 65 7a 1a bb e8 5e 43 bd 3e 6f 6d bc
       0.051952515 -0.0023571488 -0.04769793 -0.014491854
000090 49 b9 14 3e 7b 8e 8f 3e 1d b6 8f bd
       0.14523806 0.2803839 -0.07017157

linear_relu_stack.4.weight f4 [1, 39]
000000 4e 26 19 be 2d e3 c9 3e d8 07 4c 3e 83 02 09 be
       -0.14956018 0.39431134 0.19924867 -0.13379864
000010 92 54 65 bd ac d1 84 bd cc a7 28 3c 08 72 f6 bd
       -0.055988856 -0.06485304 0.010293912 -0.120334685
000020 7e 8a 0c 3d de 14 bb bd ed 86 ee bd b8 fb 03 3d
       0.034311764 -0.091348395 -0.11646829 0.03222248
000030 c5 0f 46 ba 46 b2 0a 3d ff 2d cd bc 6b b6 88 bd
       -0.00075554504 0.03386142 -0.025046347 -0.066754185
000040 b6 90 ce bd fd bf ed bd 77 4b e1 bd 5c e2 88 3d
       -0.10086195 -0.116088845 -0.11000722 0.066837996
000050 12 da f9 3c 28 9f 18 be 91 5d 74 3e 0d 48 69 bd
       0.030499492 -0.14904463 0.23863818 -0.05695348
000060 ce 7e 0e be 92 09 c9 bd a2 3d e4 3e e1 b7 75 3d
       -0.1391556 -0.098162785 0.44578272 0.059989814
000070 4e a0 88 bd be e5 2c bc 64 18 7e 3e 00 3b 0c 3e
       -0.06671201 -0.010552822 0.24813992 0.13694382
000080 04 ec e9 bd ca 2b ae bc b2 e1 11 3d 7e 5c 58 bd
       -0.114219695 -0.021261115 0.03561563 -0.052822582
000090 06 0e 81 3e 30 9f a8 3e 80 ed 5d 3b
       0.25206012 0.3293395 0.0033863485
